checkpoint.pth (torch_old, 323709 bytes, 22 tensors)

fc1.weight f4 [128, 24]
0	0xbde06377	-0.109564714
1	0x3f1f91aa	0.6233164
2	0x3b66c69a	0.003521359
3	0xbd8a7867	-0.06761246
4	0x3e1aa9ef	0.15103887
5	0xbf7c0943	-0.9845163
6	0xbd606749	-0.054786
7	0xbe3f7002	-0.18695071
8	0x3c1709ad	0.0092186155
9	0x3f41d939	0.7572208
10	0xbd423bd1	-0.047420327
11	0xbdb050e9	-0.086091824
12	0x3ebedea5	0.3727924
13	0xbf217618	-0.6307082
14	0xbc5314aa	-0.012883345
15	0xbc06e4c3	-0.008233252
16	0xbd25d673	-0.040487718
17	0x3f233dc1	0.63766104
18	0xbd1823b4	-0.037143424
19	0x3bd9718d	0.0066358508
20	0x3f4c7e7a	0.7988049
21	0xbf9773dd	-1.1832234
22	0xbc620ecc	-0.013797473
23	0x3cf9eddd	0.03050893
24	0x3eb14c9d	0.34628764
25	0x3f6eece6	0.9333023
26	0xbda2b48c	-0.07944593
27	0x3c8651bb	0.016396394
28	0xbd050577	-0.032475915
29	0xbf8c6f88	-1.0971537
30	0xbe11d3e5	-0.14240988
31	0xbd3c2546	-0.045933984
32	0x3ec7f7d6	0.3905627
33	0x3f78d63c	0.97201896
34	0xbd415c0a	-0.047206916
35	0x3dfbe158	0.1229884
36	0x3da0604d	0.07830868
37	0xbf7241e5	-0.946318
38	0x3b695d17	0.0035608464
39	0x3ccaaf96	0.024741929
40	0x3ec31ebf	0.38109395
41	0x3f80555d	1.0026051
42	0xbd7cd468	-0.061726004
43	0x3d7457c5	0.059654016
44	0x3d9a5fa2	0.07537772
45	0xbf6ac94b	-0.917134
46	0xbd4ccdaf	-0.050000843
47	0x3da2308b	0.07919415
48	0x3ef80519	0.4844139
49	0xbe125223	-0.14289145
50	0xbc6eb15b	-0.014568652
51	0x3c0465a7	0.008080876
52	0xbd790157	-0.060792293
53	0xbe8e9847	-0.27850553
54	0xbce6917b	-0.028145542
55	0xbba6ad03	-0.0050865426
56	0x3ee22bce	0.44174045
57	0x3d971b80	0.07378292
58	0xbdc3a9e2	-0.09553887
59	0x3e8f37ba	0.27972203
60	0x3e4c2180	0.19934654
61	0xbf3b1f50	-0.73094654
62	0xbcaad4c6	-0.020853411
63	0x3e325d45	0.17418392
64	0x3f08881e	0.533327
65	0x3e8d9252	0.27650696
66	0xbd333b0f	-0.043757495
67	0x3ea0de80	0.31419754
68	0x3e9b44fe	0.30326074
69	0xbf4477e1	-0.7674542
70	0xbd75df2f	-0.060027298
71	0x3e9a55e8	0.30143666
72	0xbe30b146	-0.17255124
73	0xbdf44519	-0.11927242
74	0xbda73108	-0.08163649
75	0xbf07f041	-0.53100973
76	0x3eac727e	0.336811
77	0xbe29f289	-0.16596426
78	0x3d00fc0e	0.031490378
79	0xbf270311	-0.65239054
80	0x3de4dcf7	0.11174958
81	0x3dfe9fd8	0.124328315
82	0x3a3226b0	0.0006795926
83	0xbe4038d4	-0.18771678
84	0x3d3404a5	0.043949742
85	0xbd751a5f	-0.059839603
86	0xbcd86ef9	-0.026420103
87	0xbe65a018	-0.22424352
88	0x3ea8edf4	0.32994044
89	0x3dcab4e2	0.09897782
90	0x3d888729	0.06666405
91	0x3dc47ebe	0.09594487
92	0xbe4c05a8	-0.19924033
93	0x3ee85d90	0.45383883
94	0x3c6a73c4	0.014309827
95	0x3d712eae	0.058882408
96	0x3f22805f	0.6347713
97	0x3e8fb74e	0.28069538
98	0xbc062e72	-0.008189784
99	0xbe7dd7e9	-0.24789394
100	0xbea5b26a	-0.32362682
101	0xbf100834	-0.56262517
102	0x3e018a84	0.12650496
103	0xbe42ec2f	-0.1903541
104	0x3f14cc19	0.5812393
105	0x3ef039cc	0.46919096
106	0x3de64ba3	0.11244895
107	0x3e688cb3	0.22709922
108	0xbeb0fa33	-0.34565887
109	0xbf5b9d15	-0.85786563
110	0xbc2a9342	-0.010411086
111	0x3e40dac1	0.18833448
112	0x3f1663bc	0.5874593
113	0x3ec32bfa	0.3811949
114	0x3dc0ccb2	0.094140425
115	0xbc8014bb	-0.015634885
116	0xbf097e65	-0.5370849
117	0xbf97a2bb	-1.1846536
118	0x3c8bbd2c	0.017057978
119	0x3d328162	0.04358042
120	0x3ecdc05b	0.40185818
121	0x3f1108bb	0.56653947
122	0xbdc5d4c1	-0.0965972
123	0x3ee3fc6c	0.4452852
124	0x3dad2023	0.08453395
125	0xbf4caf74	-0.7995522
126	0x3b88a622	0.004170195
127	0x3eb5c240	0.35499763
128	0x3ed98c5c	0.42489898
129	0x3f1848a4	0.5948584
130	0x3d62e390	0.0553928
131	0xbe94ae26	-0.29039115
132	0x3ddc3ca8	0.10753757
133	0xbf154675	-0.58310634
134	0xbda7b8e9	-0.08189566
135	0xbeaba215	-0.33522096
136	0x3ed4cb74	0.41561472
137	0x3ee2c52a	0.4429105
138	0x3d945b96	0.07244031
139	0xbe2450d9	-0.16046466
140	0x3e5bd4b8	0.21467865
141	0xbe98200b	-0.29711947
142	0xbd918309	-0.07105071
143	0xbd72f325	-0.059313912
144	0x3ea764fa	0.32694227
145	0x3dbd8c5c	0.09255287
146	0xbd5e626d	-0.054293085
147	0xbec95c97	-0.39328453
148	0xbe5d752b	-0.21626727
149	0xbecdc037	-0.4018571
150	0xbe1c8472	-0.15284899
151	0xbedd28cb	-0.43195185
152	0x3ef76d76	0.483257
153	0x3e37230d	0.17884465
154	0xbd9c58d4	-0.0763413
155	0xbaaaea3d	-0.0013039779
156	0xbd4d457b	-0.05011509
157	0xbdd95846	-0.1061254
158	0xbdaf5418	-0.085609615
159	0xbc8f9b3a	-0.017530072
160	0x3f065b9a	0.5248352
161	0x3e8e519b	0.27796635
162	0xbc80ac37	-0.015707118
163	0x3e2af743	0.16695885
164	0x3e1900fc	0.14941782
165	0x3ee54303	0.44777688
166	0xbcc14a99	-0.023595141
167	0x3de7e9bb	0.113238774
168	0x3d99ea3f	0.07515382
169	0xbb9d7ae0	-0.0048059076
170	0x3d3887ae	0.04505127
171	0x3e98bb6c	0.29830492
172	0x3b11b0a5	0.0022230532
173	0xbf4e012f	-0.80470556
174	0xbd285f20	-0.041106343
175	0x3ec2084c	0.37896955
176	0x3d3ff041	0.046859983
177	0x3dca5aa2	0.09880568
178	0xbe073bd1	-0.13206412
179	0x3d7a6569	0.06113187
180	0xbedaa987	-0.42707464
181	0xbeea13bf	-0.4571819
182	0xbd1fe563	-0.03903712
183	0x3dbd8932	0.092546836
184	0x3e493140	0.19647694
185	0x3e0917de	0.13388011
186	0x3ceae5a1	0.028673949
187	0xbe70be78	-0.23510158
188	0xbf02111e	-0.5080737
189	0xbec1630a	-0.37770873
190	0xbdae62c3	-0.08514931
191	0xbe3b5a65	-0.18296202
192	0x3efce73c	0.49395168
193	0x3ee46a47	0.44612333
194	0x3bffe8ab	0.0078097186
195	0xba14a0f6	-0.0005669737
196	0x3dface5c	0.12246391
197	0xbeb36c08	-0.3504336
198	0xbde15d2e	-0.11004101
199	0xbd8f7ee8	-0.07006627
200	0x3f06697f	0.52504724
201	0x3f1364a4	0.5757544
202	0xbd6edfef	-0.05831903
203	0xbde4f33f	-0.11179208
204	0xbdbf17c5	-0.093307056
205	0xbe2b42df	-0.16724728
206	0xbd14bf5a	-0.0363153
207	0xbde5647f	-0.11200809
208	0x3ef62e7c	0.4808234
209	0x3f0007b3	0.5001175
210	0xbd422ea5	-0.047407765
211	0x3d5a4e3b	0.053297263
212	0xbe5f9537	-0.21834265
213	0x3ddc56c6	0.10758738
214	0x3c7032a0	0.014660507
215	0xbc74254c	-0.01490147
216	0x3f850687	1.0392617
217	0xbd9f2b27	-0.077719025
218	0x3d1178d4	0.03551562
219	0xbdd5962e	-0.10429035
220	0x3e8c9627	0.27458307
221	0x3ef8fc3c	0.4862994
222	0xbe092c49	-0.133958
223	0xbca39b1c	-0.019971423
224	0x3f137a12	0.5760814
225	0xbe962a21	-0.29329017
226	0xbe191ce7	-0.14952432
227	0xbdda44a4	-0.106576234
228	0x3ee5226a	0.44752818
229	0xbe5e13a6	-0.21687183
230	0xbd229019	-0.039688203
231	0xbe1bde33	-0.15221481
232	0x3efd3efc	0.49462116
233	0xbe50ca2b	-0.20389621
234	0xbb280931	-0.0025640244
235	0xbda708bb	-0.08155962
236	0x3f5ac58d	0.8545769
237	0xbfc48ff9	-1.5356437
238	0xbd2f5dd2	-0.042814083
239	0x3cb26d71	0.021780701
240	0x3e0dd531	0.13850857
241	0x3f409c79	0.7523876
242	0x3d09b862	0.033623107
243	0xbd29fe02	-0.041502006
244	0xbd58d21c	-0.05293475
245	0xbd2cb6ed	-0.04216664
246	0x3d679ce1	0.056546096
247	0xbdecf663	-0.11570432
248	0x3e274aa8	0.16337073
249	0x3f4954f1	0.78645235
250	0xbe2fdf07	-0.17174922
251	0xbc983bf3	-0.018583274
252	0xbdf45401	-0.11930085
253	0x3cf7599f	0.030194102
254	0xbe263336	-0.16230473
255	0x3b3a7bb2	0.0028455076

fc1.bias f4 [128]
0	0xbf888ad6	-1.0667369
1	0xbf0a523c	-0.5403173
2	0xbf13da9b	-0.5775544
3	0xbf08b7fa	-0.53405726
4	0xbeadbce2	-0.3393317
5	0xbe6058a4	-0.21908814
6	0xbf1cf3dd	-0.61309606
7	0xbf5f9acf	-0.87345594
8	0xbf31cb28	-0.69450617
9	0xbe4b8901	-0.19876482
10	0xbedbbf28	-0.42919278
11	0xbd93d3c3	-0.07218125
12	0xbe79648b	-0.2435476
13	0x3e9b2b07	0.30306265
14	0xbec65df1	-0.38743547
15	0xbdcca77a	-0.09992881
16	0x3ef629eb	0.48078856
17	0xbe831073	-0.25598487
18	0xbed05edf	-0.4069738
19	0xbeeb6bc2	-0.4598065
20	0xbe2dec13	-0.16984586
21	0xbedbbfe2	-0.42919832
22	0xbf0110aa	-0.5041605
23	0xbe8fd054	-0.2808863
24	0xbe50b8e7	-0.20383035
25	0xbf103f46	-0.5634655
26	0xbe783c38	-0.24241722
27	0xbecd8399	-0.40139464
28	0x3da5bee2	0.08093049
29	0x3ebf7d0b	0.37400088
30	0xbecfb794	-0.40569746
31	0xbe8e5077	-0.27795765
32	0x3dc4a8be	0.096024975
33	0xbef64816	-0.48101872
34	0x3eb4590b	0.35224184
35	0xbeef261a	-0.46708757
36	0xbecad4cf	-0.39615485
37	0xbee4571e	-0.44597715
38	0xbebc0ff7	-0.3673093
39	0xbeb47e15	-0.35252443
40	0xbeecabc4	-0.46224797
41	0xbf1e555e	-0.6184901
42	0xbb49a037	-0.0030765662
43	0xbea492ac	-0.32143152
44	0xbee6c9da	-0.45075876
45	0xbeeb60a1	-0.4597216
46	0xbe4b7a82	-0.19870952
47	0xbe1ebb46	-0.15501127
48	0xbf03c1b4	-0.5146744
49	0xbf2044bb	-0.62604874
50	0x3f308b01	0.68962103
51	0xbe84fe88	-0.25975442
52	0xbe91cff4	-0.28478968
53	0xbf376d41	-0.71651083
54	0xbebb11a3	-0.36536893
55	0xbf92b4cd	-1.1461426
56	0xbdcce162	-0.10003926
57	0x3eb3878c	0.35064352
58	0xbe721916	-0.23642382
59	0x3e12b756	0.1432775
60	0xbd0fc0ad	-0.03509586
61	0x3cb3a0d6	0.021927278
62	0x3f8d496d	1.1038033
63	0xbf21f179	-0.63259083
64	0xbf4fcb8b	-0.81169957
65	0xbeb7329d	-0.35780802
66	0xbe506252	-0.20350006
67	0xbf0ef087	-0.55835766
68	0xbf214152	-0.62990296
69	0xbd856da7	-0.06515055
70	0xbf116969	-0.5680147
71	0x3ef82ded	0.4847254
72	0x3c4d378d	0.012525451
73	0xbf5c81c8	-0.8613553
74	0xbf4cebfc	-0.80047584
75	0x3e76902e	0.24078438
76	0xbd6f6998	-0.05845031
77	0x3d1fc90b	0.03901009
78	0xbed46655	-0.41484323
79	0x3cad03fb	0.021120062
80	0xbc495b56	-0.012289843
81	0xbefb4e56	-0.49083203
82	0xbf10bbe8	-0.5653672
83	0xbf3bce2b	-0.7336146
84	0xbed23f14	-0.4106375
85	0xbed0f3ba	-0.4081095
86	0xbf09f701	-0.53892523
87	0xbf3d8d7d	-0.7404402
88	0xbe07819f	-0.1323304
89	0xbf1b880d	-0.6075447
90	0xbedc73d1	-0.4305711
91	0xbea3b0fc	-0.31970966
92	0xbf29b506	-0.66291845
93	0xbf428656	-0.7598623
94	0xbdb162ae	-0.086614
95	0xbceafaa2	-0.028683964
96	0x3f021eee	0.50828445
97	0x3ebf682b	0.3738416
98	0xbf1495ef	-0.5804128
99	0xbeb66c94	-0.35629714
100	0xbed5b675	-0.41740766
101	0xbea867c1	-0.32891658
102	0x3cc42aab	0.023946127
103	0xbf108b9a	-0.56463015
104	0x3d8917b7	0.06693976
105	0xbe39fc97	-0.18162762
106	0xbe61a772	-0.22036532
107	0xbebca5bc	-0.36845195
108	0x3e8f4889	0.27985027
109	0xbe61d655	-0.22054417
110	0xbec37132	-0.381723
111	0xbe793125	-0.24335153
112	0xbec4c35f	-0.38430306
113	0x3b80dffe	0.003932952
114	0xbe89cac8	-0.26912522
115	0xbf3fe544	-0.74959207
116	0x3e551755	0.20809682
117	0xbf126402	-0.5718385
118	0xbf13f4ea	-0.57795584
119	0xbef3303d	-0.4749774
120	0xbecf8224	-0.40528977
121	0xbe07bc20	-0.13255358
122	0x3cb1c0ae	0.021698322
123	0xbe9e3191	-0.3089719
124	0xbe2a7c1a	-0.16648903
125	0x3e939b63	0.28829488
126	0xbecfa07a	-0.4055212
127	0xbecf1a8f	-0.4044995

fc2.weight f4 [128, 128]
0	0x3dfb0b7d	0.122580506
1	0x3e971e48	0.2951529
2	0xbe58fb33	-0.21189575
3	0xbe06168e	-0.13094541
4	0xbde58b01	-0.112081535
5	0x3dc1715d	0.094454505
6	0xbe94488e	-0.28961605
7	0x3dd56e2c	0.10421404
8	0xbe346825	-0.17617853
9	0xbd522565	-0.051305193
10	0xbe1413ee	-0.14460728
11	0x3e1626a1	0.14663173
12	0x3e481adc	0.19541496
13	0x3e28b32f	0.16474603
14	0x3d1f99e3	0.038965117
15	0xbf829bef	-1.0203837
16	0x3eb0b8d6	0.3451602
17	0xbda670f4	-0.08127013
18	0x3d3b696a	0.045754828
19	0xbd7e1c68	-0.06203881
20	0x3e1fdda3	0.15611891
21	0xbd2eb7c2	-0.042655714
22	0x3e8197d0	0.25311136
23	0xbe9e8d2c	-0.3096708
24	0xbe0e13c1	-0.13874723
25	0xbe70c579	-0.2351283
26	0xbe2c3ee7	-0.1682087
27	0xbdd798ae	-0.10527168
28	0x3c562c51	0.013072089
29	0x3f021559	0.50813824
30	0xbe7c5e98	-0.2464546
31	0x3cf86bb0	0.030324787
32	0x3df38043	0.11889698
33	0xbe2e1564	-0.17000347
34	0x3ec2e504	0.3806535
35	0xbaf39461	-0.0018583649
36	0xbb74b4da	-0.0037339241
37	0x3d250d0b	0.040295642
38	0x3e898257	0.26857254
39	0x3e31954e	0.17342111
40	0x3ccc6a2a	0.024952967
41	0xbe097799	-0.13424529
42	0xbe722725	-0.23647745
43	0xbe5cfa08	-0.21579754
44	0x3e28a4c2	0.164691
45	0x3e667d95	0.22508843
46	0xbe056eec	-0.13030595
47	0xbe238d51	-0.15971877
48	0xbeef098b	-0.46686968
49	0xbe8a56ed	-0.27019444
50	0x3ec17545	0.37784782
51	0x3e32ba04	0.17453772
52	0xbe9ae396	-0.3025176
53	0xbf64e117	-0.8940596
54	0xbe2308e8	-0.15921366
55	0xbecf4712	-0.4048391
56	0x3e0ce158	0.13757837
57	0xbb6c08e4	-0.0036016041
58	0x3ca7e6b1	0.020495744
59	0xbd44e8b8	-0.0480735
60	0xbe87f178	-0.26551414
61	0xbe75dc60	-0.24009848
62	0x3f302f8d	0.68822557
63	0xbee9e8d8	-0.45685458
64	0xbe3faf83	-0.18719296
65	0xbe1d00e1	-0.15332367
66	0x3d584da0	0.052808404
67	0x3d9a2705	0.07526974
68	0xbe039689	-0.12850393
69	0x3e403aad	0.18772383
70	0x3d0d1464	0.034443274
71	0x3b925b0e	0.004466421
72	0x3e6c3f5a	0.23071042
73	0x3a7b52cf	0.00095872296
74	0xbf54d0b1	-0.8313094
75	0xbe8c50f6	-0.27405518
76	0x3d99009b	0.074708186
77	0xbe154f49	-0.14581026
78	0x3e421f90	0.18957353
79	0x3e356780	0.17715263
80	0xbe7bd828	-0.24594176
81	0xbe207329	-0.1566893
82	0x3d914b11	0.07094396
83	0xbf3fcb94	-0.7492001
84	0xbecc36e1	-0.3988562
85	0xbeed1d47	-0.463114
86	0x3dd0a78a	0.101882055
87	0xbd3c9a16	-0.046045385
88	0xbb195492	-0.0023396355
89	0x3d1579ad	0.036492992
90	0xbee6332f	-0.44960925
91	0x3dad390c	0.084581465
92	0xba9ca3cd	-0.0011950672
93	0x3d2ab02b	0.041671913
94	0xbd3b1f7a	-0.045684315
95	0xbee8a74e	-0.45440143
96	0x3d1c9b5b	0.038234096
97	0x3e2b80c5	0.1674834
98	0xbdb94a94	-0.09047428
99	0xbc8e7f3c	-0.017394654
100	0xbe53b3f8	-0.20674121
101	0x3e19de95	0.15026315
102	0x3c11b3bd	0.008892951
103	0x3e64584d	0.22299309
104	0x3e411ab3	0.18857841
105	0xbf1404c8	-0.57819796
106	0x3e9ecfa3	0.3101779
107	0xbf09d9d9	-0.53848034
108	0x3e383ab7	0.17991148
109	0xbe224adf	-0.15848874
110	0x3dc19481	0.09452153
111	0xbe81f5bd	-0.25382796
112	0x3d5e16ad	0.054220844
113	0xbdbac8e1	-0.09120346
114	0xbd891da0	-0.06695104
115	0xbe0329bd	-0.1280889
116	0xbc60ea09	-0.013727673
117	0x3de7b522	0.11313845
118	0xbe9ecdf1	-0.31016496
119	0xbde47282	-0.11154653
120	0xbd4e4692	-0.05036027
121	0xbe87422d	-0.26417676
122	0x3d737018	0.059433073
123	0xbe5445df	-0.20729779
124	0xbd6ad336	-0.057330333
125	0xbd775cda	-0.060391285
126	0xbe7e8a9a	-0.2485756
127	0xbdf8eae6	-0.12154178
128	0x3e5fc169	0.21851124
129	0x3e95be45	0.29246727
130	0x3e13742b	0.14399783
131	0xbe80857d	-0.25101843
132	0x3e9b0b88	0.30282235
133	0x3d21852c	0.039433643
134	0xbcedcbe1	-0.029027881
135	0xbebde45a	-0.3708828
136	0xbed100e8	-0.40821004
137	0x3cc4a087	0.024002327
138	0x3cc16b9c	0.023610882
139	0xbe7db8f1	-0.24777581
140	0xbe2277bf	-0.15865992
141	0xbe783a5f	-0.24241017
142	0x3ceacf72	0.02866337
143	0x3ea6e029	0.32592896
144	0xbe28491d	-0.1643414
145	0x3e2d08d3	0.16897897
146	0x3c50000c	0.012695324
147	0x3db8f9b9	0.09032006
148	0xbe257468	-0.16157687
149	0xbdf34317	-0.11878031
150	0xbe18b7e9	-0.14913906
151	0xbdb714ab	-0.08939489
152	0xbf05ddaf	-0.5229139
153	0xbe0084d3	-0.12550668
154	0xbdba2e20	-0.09090829
155	0x3ea6d939	0.32587603
156	0xbe239beb	-0.15977447
157	0x3f05da9c	0.52286696
158	0xbe7f3f73	-0.24926548
159	0xbf0dd147	-0.55397457
160	0x3e7d3dff	0.24730681
161	0xbde39058	-0.11111516
162	0x3e010c8b	0.12602441
163	0x3e1a6015	0.15075715
164	0xbe93af73	-0.28844795
165	0x3ce7a1ed	0.028275454
166	0x3d3ea8a3	0.046547543
167	0x3a783d99	0.0009469628
168	0x3e7addad	0.24498625
169	0x3e8ab9cb	0.27094874
170	0xbcfed57c	-0.031107657
171	0xbf796088	-0.9741292
172	0xbe0e23bd	-0.1388082
173	0x3e72ecd0	0.2372315
174	0x3e30f1eb	0.17279784
175	0xbe8c89f4	-0.27449
176	0xbdba1a4a	-0.090870455
177	0xbeed69ce	-0.46369785
178	0xbf5ff545	-0.87483627
179	0xbdbff3de	-0.09372686
180	0xbd714477	-0.058903184
181	0xbecb3ebc	-0.396963
182	0x3e6b6091	0.22986056
183	0x3ef2df3d	0.47435942
184	0x3d4d91eb	0.050187986
185	0x3cd1895a	0.02557819
186	0xbcd86aa6	-0.026418041
187	0xbd94ff3f	-0.07275247
188	0xbd64d890	-0.055870593
189	0x3d813922	0.06309725
190	0xbf12ac0e	-0.57293785
191	0xbe8e7af7	-0.2782819
192	0x3e8a390c	0.26996648
193	0xbe8b4aac	-0.27205408
194	0x3dfa3584	0.122172385
195	0x3b65fefb	0.0035094607
196	0xbea3c7b2	-0.31988293
197	0x3bbb4d33	0.00571599
198	0xbe39d741	-0.18148519
199	0x3dcdfca6	0.100579545
200	0x3c3a62e4	0.011376116
201	0x3e0d49bb	0.13797657
202	0x3ddd6000	0.10809326
203	0xbf0c45f1	-0.5479422
204	0xbe79d1b6	-0.24396405
205	0xbe6053ef	-0.21907018
206	0xbd151e7f	-0.036406036
207	0x3e5e9af2	0.21738794
208	0xbd0e6243	-0.03476168
209	0x3db0d72e	0.08634792
210	0x3c91cdac	0.017798267
211	0xbe9071ff	-0.28211972
212	0xbe999367	-0.29995272
213	0x3be07002	0.00684929
214	0xbeb4cfae	-0.35314697
215	0x3d03277f	0.03202009
216	0xbe4306a6	-0.19045505
217	0xbd565d17	-0.05233487
218	0x3f0441f4	0.51663136
219	0x3ebdb9d8	0.3705585
220	0x3d5162ae	0.0511195
221	0x3de82296	0.11334722
222	0xbcb5ef48	-0.022208825
223	0x3d82d781	0.0638876
224	0xbe1cabdd	-0.15299936
225	0x3e200eb6	0.15630612
226	0x3e0502fc	0.1298942
227	0x3da21262	0.079136625
228	0xbe97d6b3	-0.2965599
229	0x3cfa58ba	0.030559886
230	0xbd1df73d	-0.038565863
231	0xbda97cc1	-0.08275748
232	0xbf5cd0f4	-0.8625634
233	0xbe7a8f1a	-0.24468651
234	0xbe4a170c	-0.19735354
235	0xbd83cdfd	-0.064357735
236	0xbf520469	-0.8203798
237	0xbe00618f	-0.12537216
238	0x3e4e8617	0.20168339
239	0xbe343cee	-0.17601368
240	0xbeb00be2	-0.34384066
241	0x3e5b0281	0.21387674
242	0xbedcb4b5	-0.4310662
243	0xbe680725	-0.22658975
244	0x3cc946cb	0.02456989
245	0x3d517370	0.05113548
246	0x3d99b3f1	0.07505024
247	0x3d3ea7eb	0.046546858
248	0xbee7312b	-0.451547
249	0xbd88b8cf	-0.066758744
250	0xbe484636	-0.19558033
251	0xbf15ad28	-0.5846734
252	0x3e683414	0.22676116
253	0xbf009e23	-0.502413
254	0xbd451391	-0.048114363
255	0xbe93b361	-0.28847793

fc2.bias f4 [128]
0	0x3eaf4d92	0.3423887
1	0xbf07ffa4	-0.5312445
2	0xbe282699	-0.16420974
3	0xbded9c07	-0.116020255
4	0x3e059ae3	0.13047366
5	0x3e21cbfe	0.15800473
6	0xbce41120	-0.027840197
7	0xbeae36f2	-0.34026295
8	0xbce37601	-0.02776623
9	0xbf8a2dab	-1.0795187
10	0x3e28a385	0.16468628
11	0xbe55f69a	-0.20894852
12	0xbeba8ad4	-0.36434042
13	0xbec540db	-0.38526043
14	0x3d54d3cd	0.0519598
15	0xbd277f94	-0.040893152
16	0x3d8f1b1f	0.06987595
17	0xbe8af5ef	-0.27140757
18	0xbf910550	-1.1329746
19	0xbc890c3c	-0.016729467
20	0x3e5831aa	0.21112695
21	0xbe9c560c	-0.305344
22	0xbc9f2554	-0.01942698
23	0xbd5add67	-0.053433802
24	0xbe31fa3f	-0.17380618
25	0xbe28e7de	-0.164947
26	0xbdcef204	-0.101047546
27	0x3ca19008	0.019722
28	0xbdc50489	-0.09620006
29	0x3d8ab197	0.06772154
30	0xbe316907	-0.17325221
31	0xbde06671	-0.10957039
32	0x3e8a0a05	0.2696077
33	0xbdcb47d3	-0.09925809
34	0xbea7d184	-0.32777035
35	0xbee8c826	-0.454652
36	0xbf0020fe	-0.5005034
37	0x3eb85b8a	0.3600734
38	0xbe7c7bd6	-0.24656615
39	0xbea9f98e	-0.33198208
40	0xbe401657	-0.18758522
41	0x3d9ee023	0.077575944
42	0x3e3c1063	0.18365626
43	0x3eed4565	0.46342006
44	0xbe31f2c9	-0.17377771
45	0xbcd7f200	-0.026360512
46	0xbe490c43	-0.19633584
47	0xbe552ca7	-0.20817815
48	0xbdbfd88e	-0.093674764
49	0x3e466bf9	0.19377126
50	0x3e7c723f	0.24652956
51	0xbef88632	-0.48539883
52	0xbe1edefe	-0.15514752
53	0xbe91dc88	-0.28488564
54	0x3eb2626b	0.34840712
55	0x3dfe4568	0.12415582
56	0xbf11ea71	-0.56998354
57	0xbf1b751f	-0.6072559
58	0xbd22e497	-0.03976878
59	0x3ddcd09d	0.10781977
60	0x3dcdedaf	0.100551
61	0x3c6a87f7	0.014314643
62	0xbdca0b2a	-0.098654106
63	0xbd1c09ae	-0.03809517
64	0x3d50066f	0.050787386
65	0xbdbd0fee	-0.09231554
66	0xbed9cab6	-0.4253747
67	0xbe1ab435	-0.15107806
68	0xbe3c2c4f	-0.18376277
69	0xbec5629e	-0.385518
70	0xbdbe8669	-0.093029805
71	0xbd042874	-0.03226514
72	0x3eef0135	0.46680608
73	0xbe7c99f2	-0.246681
74	0xbc0c97c8	-0.008581109
75	0xbdc2b70c	-0.0950757
76	0xbeffb712	-0.4994436
77	0x3e40e417	0.1883701
78	0x3f08e159	0.53468853
79	0x3e1b68dc	0.1517672
80	0xbeb985e6	-0.3623497
81	0xbe90e819	-0.28302076
82	0xbe82ece4	-0.25571358
83	0xbf192948	-0.59828615
84	0xbe1a8c40	-0.15092564
85	0xbe76ffd1	-0.24121024
86	0xbc4d761f	-0.012540369
87	0xbebfcc44	-0.3746053
88	0xbea10e39	-0.31456164
89	0xbde23def	-0.11046969
90	0x3cc11eea	0.023574311
91	0xbe34903b	-0.17633145
92	0xbe4263a1	-0.18983318
93	0xbe383f40	-0.17992878
94	0x3e66e5ee	0.22548649
95	0x3eed4ca5	0.46347538
96	0x3e42353c	0.1896562
97	0xbe54c9c6	-0.20780095
98	0xbdc8a4cb	-0.09797057
99	0xbe9b09ff	-0.30281064
100	0x3d858b53	0.065207146
101	0xbe044e70	-0.12920547
102	0x3d47e979	0.04880664
103	0x3e826c4b	0.25473246
104	0xbddc8d66	-0.10769157
105	0xbe362a79	-0.1778964
106	0xbe5e0928	-0.2168318
107	0x3ee3784d	0.4442772
108	0x3c95a249	0.01826586
109	0xbe868d89	-0.26279858
110	0xbe7260fc	-0.23669809
111	0xbea402d3	-0.32033405
112	0x3e053169	0.1300713
113	0xbe7e7b97	-0.24851833
114	0x3df4f1e3	0.11960199
115	0xbe50496a	-0.20340505
116	0xbd0e7505	-0.034779567
117	0x3cf57005	0.029960642
118	0xbe0b088f	-0.13577484
119	0xbefd47eb	-0.49468932
120	0xbe223ddf	-0.15843914
121	0xbe928068	-0.2861359
122	0xbe6b183b	-0.22958462
123	0xbe101721	-0.14071323
124	0xbf01acca	-0.5065428
125	0x3db6442c	0.088997215
126	0xbd872282	-0.06598379
127	0xbe9f9c2e	-0.31173843

fc3.weight f4 [2, 128]
0	0x3f2f3169	0.6843477
1	0xbb89a190	-0.004200168
2	0x3c0b4121	0.008499415
3	0xbd7a72d4	-0.061144665
4	0xbe92a6fe	-0.2864303
5	0x3dfbf8ab	0.12303289
6	0x3ecbfb9d	0.39840403
7	0xbce4fc2d	-0.027952278
8	0xbd1feb03	-0.039042484
9	0x3e8f71a4	0.28016388
10	0x3e0693a6	0.13142261
11	0xbe146381	-0.14491083
12	0xbdc8fce9	-0.09813864
13	0x3d8c7279	0.068577714
14	0xbcd99bac	-0.026563488
15	0x3ed98c31	0.4248977
16	0xbc105b73	-0.008810866
17	0xbac093c5	-0.0014692476
18	0xbd295374	-0.041339353
19	0x3ca3d16c	0.019997321
20	0x3e05e800	0.13076782
21	0xbe823327	-0.2542965
22	0xbe611ef3	-0.21984462
23	0xbd02bda4	-0.031919137
24	0xbe87d98c	-0.26533163
25	0x3db4fbf9	0.088371225
26	0x3b8e6d5a	0.004346532
27	0x3e28751d	0.16450925
28	0x3b94a00e	0.0045356816
29	0x3b95eef0	0.0045756027
30	0xbd42f907	-0.047600772
31	0x3d5c7a45	0.053827543
32	0xbda97ec5	-0.082761325
33	0x3bf89193	0.007585713
34	0xbd44bb27	-0.048030045
35	0x3e11c563	0.14235453
36	0xbe3773b2	-0.17915228
37	0x3b8c870c	0.00428856
38	0xbe80287e	-0.25030893
39	0x3cd25e79	0.025679814
40	0xbd3ec46a	-0.046574034
41	0xbe4d754d	-0.20064278
42	0xbd79bf4c	-0.06097345
43	0xbc09123e	-0.008366166
44	0xbcc24e61	-0.023719015
45	0xbc0f6bb9	-0.00875371
46	0xbdd22080	-0.10260105
47	0xbe5a632d	-0.21326895
48	0x3d92da0f	0.071704976
49	0xbdc466da	-0.0958993
50	0xbe00f6a6	-0.12594089
51	0xbed163ff	-0.40896603
52	0xbe145ccc	-0.14488524
53	0x3e858f7e	0.26086038
54	0x3d5ce947	0.053933408
55	0xbd1b38ef	-0.037896093
56	0x3e08b68e	0.13350889
57	0xbd21e13c	-0.03952144
58	0x3ca02ed8	0.019553587
59	0xbbeba5fd	-0.007191418
60	0x3d38da4c	0.04513006
61	0xbe10c3b8	-0.14137161
62	0xbd9a4c8d	-0.07534132
63	0xbdc705fe	-0.0971794
64	0x3d95782e	0.07298313
65	0xbb25dab9	-0.002530737
66	0xbe8812cc	-0.2657684
67	0xbdfb7ccb	-0.12279662
68	0xbdd40453	-0.10352387
69	0x3d8552b8	0.06509918
70	0xbe31ff51	-0.17382552
71	0xbe59a3a1	-0.21253826
72	0xbdb498dd	-0.08818219
73	0xbd426e3a	-0.0474684
74	0x3db74bf8	0.08950037
75	0xbe75df97	-0.24011074
76	0xbecde9dd	-0.40217486
77	0x3ba016ac	0.004885515
78	0x3da1f297	0.079075985
79	0xbe1b0f46	-0.15142545
80	0x3e00529b	0.12531511
81	0xbe9019cf	-0.2814469
82	0xbc4cde6f	-0.012504204
83	0x3c6e64fa	0.014550442
84	0x3e0904b7	0.13380705
85	0x3babeed3	0.005246976
86	0x3cca1858	0.024669811
87	0xbc3e6287	-0.01162017
88	0x3dbf07a3	0.093276285
89	0x3cf3978f	0.029735355
90	0xbf0426ac	-0.5162151
91	0xbc122ed0	-0.008922294
92	0x3aea9da6	0.0017899766
93	0x3c80d7c0	0.015727878
94	0xbea92fdd	-0.3304433
95	0xbec2769c	-0.37981117
96	0xbe7bca82	-0.2458897
97	0xbe2f0bf7	-0.17094408
98	0xbc383a2c	-0.011244338
99	0xbd45b118	-0.048264593
100	0x3eb105be	0.34574693
101	0x3c0bd8f9	0.008535617
102	0xbde4c9d9	-0.11171312
103	0x3cce2d16	0.025167983
104	0x3c3fa065	0.011695956
105	0xbd885d4b	-0.06658419
106	0x3f095f21	0.5366078
107	0x3e4539e3	0.19260363
108	0x3ed0fcb8	0.4081781
109	0xbcb4c767	-0.022067739
110	0x3ead6324	0.338647
111	0xbd874d98	-0.06606597
112	0x3e2d6bbb	0.16935627
113	0x3e571049	0.21002306
114	0xbda502ea	-0.080571964
115	0xbcbd7ef5	-0.023131827
116	0x3d1b76e5	0.037955184
117	0x3b68ffb8	0.003555281
118	0x3c545229	0.012959042
119	0xbe0c494e	-0.13699839
120	0x3cc0640d	0.023485208
121	0xbe0923a5	-0.13392504
122	0xbe0a6d65	-0.13518293
123	0xbcbbe926	-0.022938322
124	0xbea5477f	-0.3228111
125	0xbcd39cbe	-0.025831576
126	0xbd8bb30c	-0.0682126
127	0x3e58e9a4	0.21182877
128	0xbef2e49f	-0.4744005
129	0x3f461839	0.7738071
130	0x3e9cd546	0.30631465
131	0xbeabfdfa	-0.33592206
132	0x3d2ec2a3	0.04266609
133	0xbf1ca66b	-0.61191434
134	0xbf34a72d	-0.7056759
135	0xbe0fc05b	-0.14038222
136	0xbd8b7381	-0.0680914
137	0xbd4af647	-0.049551275
138	0x3f0d7b61	0.55266386
139	0xbe09b96e	-0.13449642
140	0x3efdf793	0.49602947
141	0x3ebb65eb	0.36601195
142	0xbe766853	-0.24063234
143	0xbe86d6b8	-0.26335692
144	0x3eec10f5	0.46106687
145	0x3e9cfe6e	0.30662864
146	0x3ee3ad35	0.44468084
147	0xbcea31f2	-0.028588269
148	0x3e82293d	0.25422087
149	0xbeb8847a	-0.36038572
150	0x3ecc4b9a	0.3990143
151	0xbd48919b	-0.048966985
152	0x3bcc70ba	0.006239024
153	0x3e11b24d	0.14228173
154	0xbe543a55	-0.20725377
155	0x3d4f8fb2	0.050674148
156	0x3d9050ee	0.07046686
157	0x3ea348c9	0.31891468
158	0x3e1170cd	0.14203186
159	0xbcab238b	-0.020890972
160	0xbf5e118a	-0.8674551
161	0xbeadc475	-0.33938947
162	0x3e88d1c3	0.26722535
163	0x3e2d07c0	0.16897488
164	0x3d8379ca	0.06419714
165	0x3f91b6a0	1.1383858
166	0x3dc58beb	0.09645828
167	0x3c52b6dd	0.012860981
168	0xbee01b96	-0.43771046
169	0x3ea4787c	0.32123172
170	0xbe1eb3d8	-0.15498292
171	0x3f522836	0.8209261
172	0x3da43b64	0.0801914
173	0xbd26b124	-0.04069628
174	0xbe6afc62	-0.22947839
175	0x3edb66da	0.42851907
176	0x3e190b59	0.14945735
177	0x3e38218b	0.17981546
178	0xbf056c3a	-0.52118266
179	0xbde22052	-0.11041321
180	0x3fa2783d	1.2692944
181	0xbf3bd0da	-0.7336556
182	0xbf2715fe	-0.6526793
183	0xbf1ad1ee	-0.6047658
184	0x3e493412	0.1964877
185	0x3e8cd7dd	0.2750844
186	0xbe1c2abb	-0.15250675
187	0xbefd85cc	-0.4951614
188	0xbf33cbc2	-0.70232785
189	0x3e0fed58	0.14055383
190	0xbde9dc39	-0.11418957
191	0xbee39259	-0.44447592
192	0x3ea05813	0.31317195
193	0xbd600502	-0.054692276
194	0xbc07905a	-0.008274162
195	0xbe197c19	-0.14988746
196	0x3bc6a0ef	0.0060616652
197	0xbe2005b4	-0.15627176
198	0xbc7c4f9a	-0.015399838
199	0xbd634389	-0.05548433
200	0x3e37b3fa	0.1793975
201	0xbeceb686	-0.4037363
202	0xbe99254a	-0.29911262
203	0xbe8aceb8	-0.2711084
204	0x3e815dc8	0.25266862
205	0x3f27bbdf	0.65521044
206	0x3f24d702	0.64390576
207	0x3db9faea	0.09081061
208	0xbf0ff8c1	-0.56238943
209	0x3f8c288f	1.0949878
210	0x3e0172bc	0.12641424
211	0x3eb8b223	0.36073408
212	0x3d2d84c7	0.042362954
213	0x3cb0ebf2	0.021596882
214	0xbcff3556	-0.031153362
215	0xbe907274	-0.2821232
216	0x3eb85b10	0.36006975
217	0xbdaf9153	-0.0857264
218	0x3e687b9f	0.22703408
219	0xbdedfbf2	-0.116203204
220	0xbe556082	-0.20837596
221	0x3d405db9	0.04696438
222	0x3dcd7e32	0.100338355
223	0x3e0d4e62	0.13799432
224	0x3ea3c501	0.3198624
225	0x3e86cc81	0.263279
226	0xbecf0845	-0.40435997
227	0x3d63d338	0.055621356
228	0xbf96f85c	-1.1794543
229	0xbd102815	-0.035194475
230	0x3ea7cc07	0.32772848
231	0xbf501cc7	-0.8129391
232	0x3b79acec	0.0038097454
233	0x3ea21202	0.31654364
234	0xbf263173	-0.64919204
235	0x3eb8d255	0.3609797
236	0x3b3ab232	0.002848756
237	0x3f8dcf45	1.1078879
238	0x3d9af021	0.07565332
239	0x3eb0acdc	0.3450688
240	0x3e63c0ee	0.22241566
241	0xbecde26f	-0.40211818
242	0x3ee7902a	0.45227176
243	0xbe174fc3	-0.1477652
244	0x3dac27ca	0.08406027
245	0x3e14ab5f	0.14518498
246	0x3cc5f1ca	0.024163146
247	0x3dc5558f	0.0963546
248	0xbe44ffc2	-0.19238189
249	0x3f0752eb	0.528609
250	0xbd9bdcdd	-0.07610486
251	0xbd470dd6	-0.04859718
252	0x3ee0be9c	0.43895423
253	0xbee81ae6	-0.45333022
254	0x3f3079e8	0.68936014
255	0xbf09a7ec	-0.53771853

fc3.bias f4 [2]
0	0xbe9ce8ce	-0.30646366
1	0x3f6cd9b9	0.9251972

fcs1.weight f4 [128, 24]
0	0x3d16c108	0.036805183
1	0x3b7bb46d	0.0038407103
2	0x3b1e37b1	0.0024142081
3	0xbb647c90	-0.0034864284
4	0x3d1a27fc	0.03763579
5	0xbd08e851	-0.03342468
6	0x3b1eab8b	0.0024211134
7	0xbb647c90	-0.0034864284
8	0x3d30c47f	0.043156143
9	0x3b222d2a	0.0024746158
10	0xbb954511	-0.0045553525
11	0xbc02d1ae	-0.007984562
12	0x3d113b20	0.035456777
13	0xbd0908ba	-0.033455588
14	0xbb93955c	-0.004503889
15	0xbc02d1ae	-0.007984562
16	0x3d467ee0	0.04846084
17	0x3b0760e1	0.002065711
18	0xba3d3101	-0.000721708
19	0xbc3c8dda	-0.011508429
20	0x3cee603a	0.029098619
21	0xbd08d059	-0.03340182
22	0xba1c2d2c	-0.0005957659
23	0xbc3c8dda	-0.011508429
24	0x3d3f95cf	0.046773728
25	0x3c7445c9	0.014909216
26	0x3b9e5c2f	0.0048327665
27	0x3a47541c	0.0007603781
28	0x3ccfc74f	0.025363592
29	0xbce58c7f	-0.028021095
30	0x3b9e5c56	0.0048327846
31	0x3a47541c	0.0007603781
32	0x3d2e7620	0.04259312
33	0x3c642c8e	0.013926638
34	0xbb850e15	-0.0040605166
35	0xbc052f2a	-0.008128921
36	0x3cb9bf76	0.022674304
37	0xbccb914c	-0.024849556
38	0xbb850e51	-0.0040605445
39	0xbc052f2a	-0.008128921
40	0x3d521e6b	0.05129854
41	0x3c4e127c	0.012577649
42	0x384641e0	4.726823e-05
43	0xbbe2f814	-0.006926546
44	0x3c9b1199	0.01892929
45	0xbcdb1b23	-0.026746338
46	0x384629b0	4.7245703e-05
47	0xbbe2f814	-0.006926546
48	0x3ce4c2a0	0.027924836
49	0x3abd2051	0.0014429187
50	0xbc0b3e09	-0.008498677
51	0x3b4a13f6	0.0030834652
52	0x3d024300	0.031802177
53	0xbc687acc	-0.014189433
54	0xbc0dc5a7	-0.008653081
55	0x3b4a13f6	0.0030834652
56	0x3cf97aa5	0.03045399
57	0x3b671c1c	0.0035264557
58	0x3b899b15	0.0041993954
59	0x3bfd9473	0.007738644
60	0x3cf307a0	0.029666722
61	0xbc56a0ad	-0.0130998315
62	0x3b8a66a6	0.0042236624
63	0x3bfd9473	0.007738644
64	0x3cfdf2b7	0.030999525
65	0x3be8b765	0.0071019405
66	0xbab3af7e	-0.0013708917
67	0x3c2247ce	0.009904815
68	0x3cb72857	0.022358103
69	0xbc23ba1b	-0.0099931015
70	0xbabc9e80	-0.0014390498
71	0x3c2247ce	0.009904815
72	0x3d29c21b	0.04144488
73	0x3d25f7af	0.040519413
74	0xbc36d679	-0.011159533
75	0x3c7b53f0	0.0153398365
76	0x3d480e2c	0.04884164
77	0xbd2ce324	-0.042208806
78	0xbc36dd45	-0.011161153
79	0x3c7b53f0	0.0153398365
80	0x3d39a112	0.045319624
81	0x3d195ce1	0.03744209
82	0xbc49876e	-0.012300355
83	0xbc0eb3ad	-0.00870983
84	0x3d1fff68	0.039061934
85	0xbd5982de	-0.05310332
86	0xbc4995e5	-0.012303804
87	0xbc0eb3ad	-0.00870983
88	0x3d540a63	0.051767718
89	0x3cf8bd6f	0.030363766
90	0xbc23a12f	-0.00998716
91	0xbcb7bf03	-0.022429949
92	0x3cde5c0c	0.0271435
93	0xbd6ed3be	-0.0583074
94	0xbc23a795	-0.009988685
95	0xbcb7bf03	-0.022429949
96	0x3ce7e934	0.028309442
97	0x3a04e6d6	0.00050697976
98	0xbb59b0e7	-0.0033217014
99	0xbb806991	-0.0039188345
100	0x3c17c9eb	0.00926445
101	0xbbe60215	-0.007019291
102	0xbb59b0ad	-0.003321688
103	0xbb806991	-0.0039188345
104	0x3d074422	0.03302396
105	0x3aad65e0	0.0013229214
106	0xbbaa6ee1	-0.005201206
107	0x399f33dc	0.00030365482
108	0x3c11b8df	0.008894174
109	0xbc00d0bf	-0.007862269
110	0xbbaa6f28	-0.005201239
111	0x399f33dc	0.00030365482
112	0x3d140db4	0.03614588
113	0x3ab83484	0.0014053737
114	0xbae31418	-0.0017324714
115	0xbb0d71ed	-0.0021582798
116	0x3c15772c	0.009122651
117	0xbc034a41	-0.008013309
118	0xbae314ce	-0.0017324926
119	0xbb0d71ed	-0.0021582798
120	0x3cfb1988	0.030651823
121	0x3b455cf0	0.003011521
122	0xbb7cc686	-0.0038570478
123	0x37a6a84d	1.9867113e-05
124	0x3c733c26	0.0148458835
125	0xbcaba153	-0.020950949
126	0xbb7cb4ba	-0.003855987
127	0x37a6a84d	1.9867113e-05
128	0x3d04b1a0	0.03239596
129	0x3b5d7d1f	0.0033796502
130	0xbbe13925	-0.0068732672
131	0x3bcb6263	0.006206797
132	0x3c66b245	0.014080589
133	0xbcc20143	-0.023682242
134	0xbbe129e5	-0.0068714493
135	0x3bcb6263	0.006206797
136	0x3d1a44b1	0.037663165
137	0x3b711ce8	0.003679091
138	0xbb858233	-0.004074359
139	0x3b2bfdcd	0.0026243806
140	0x3c5d8226	0.013519799
141	0xbcd6108d	-0.026130939
142	0xbb85b9da	-0.004080993
143	0x3b2bfdcd	0.0026243806
144	0x3d64eaa9	0.055887852
145	0x3c9d7dae	0.019224968
146	0x3b0a7cec	0.0021131588
147	0x3d1405ca	0.036138333
148	0x3d191875	0.03737684
149	0xbd56ebed	-0.05247109
150	0x3b0968a5	0.0020966914
151	0x3d1405ca	0.036138333
152	0x3d802b23	0.06258228
153	0x3cb1fc7c	0.02172684
154	0xbbcd62d8	-0.0062678866
155	0x3bdb805a	0.0066986503
156	0x3d07a867	0.033119585
157	0xbd5cf241	-0.05394197
158	0xbbce7db4	-0.006301606
159	0x3bdb805a	0.0066986503
160	0x3d5f87de	0.054572932
161	0x3cc03d6c	0.023466788
162	0xbaa1e4d3	-0.001235152
163	0x3c9039b9	0.01760565
164	0x3cf23284	0.029565103
165	0xbd66b788	-0.056327373
166	0xbaa0f9b0	-0.0012281444
167	0x3c9039b9	0.01760565
168	0x3dd8fc28	0.1059497
169	0x3bf96552	0.0076109553
170	0xbbf8bd6d	-0.0075909407
171	0xbafcee53	-0.00192971
172	0xbccffc9c	-0.025389008
173	0xbd237936	-0.039910518
174	0x391f3d06	0.00015186155
175	0xbafcee53	-0.00192971
176	0x3df57693	0.11985507
177	0x3bd33460	0.0064454526
178	0x3bf981d5	0.007614354
179	0xbc3ef1e2	-0.011654349
180	0xbd5ce8e5	-0.053933043
181	0xbd08aaeb	-0.033366125
182	0x3c076a49	0.008265086
183	0xbc3ef1e2	-0.011654349
184	0x3dd1a206	0.10235982
185	0x3ba64946	0.005074653
186	0x3c22c2de	0.009934155
187	0x3bb01ab4	0.005374277
188	0xbdb2c5ef	-0.08729159
189	0xbc97c6d7	-0.018527431
190	0x3c45d0ab	0.012073676
191	0x3bb01ab4	0.005374277
192	0x3d8d3de3	0.068965696
193	0x3bad5e9f	0.0052908207
194	0xba9564f0	-0.001139788
195	0xb90f20f2	-0.00013649816
196	0x3d17c291	0.037050787
197	0xbd703a9a	-0.058649637
198	0xba955cbb	-0.0011395434
199	0xb90f20f2	-0.00013649816
200	0x3d99535f	0.07486605
201	0x3bf66974	0.007519895
202	0xbc343896	-0.010999819
203	0x3c8913f8	0.016733155
204	0x3d1b979f	0.037986394
205	0xbd30d594	-0.043172434
206	0xbc343a14	-0.011000175
207	0x3c8913f8	0.016733155
208	0x3d88504e	0.06655942
209	0x3c07a5b9	0.008279257
210	0xbc916127	-0.017746521
211	0xbb1b29db	-0.002367607
212	0x3cd58262	0.026063148
213	0xbce63a06	-0.02810384
214	0xbc9161a2	-0.01774675
215	0xbb1b29db	-0.002367607
216	0x3c09764f	0.008390023
217	0x39a26d2c	0.00030980387
218	0xba5acde3	-0.00083467196
219	0xbb545c6b	-0.0032403718
220	0x3b21f9a0	0.0024715438
221	0xbb07512b	-0.0020647745
222	0xba5a4da5	-0.000832761
223	0xbb545c6b	-0.0032403718
224	0x3c1c74d0	0.009549335
225	0x395759b9	0.00020537422
226	0xba97d082	-0.0011582526
227	0x3ad0f4f0	0.0015942138
228	0x3b13090d	0.0022435815
229	0xbb2b29cf	-0.002611745
230	0xba97cee5	-0.0011582045
231	0x3ad0f4f0	0.0015942138
232	0x3c2092ab	0.009800593
233	0x39385893	0.00017580604
234	0xba6b7f3a	-0.0008983497
235	0xb92219b8	-0.00015459105
236	0x3b2fa3be	0.0026800479
237	0xbb59c9ce	-0.0033231857
238	0xba6b15db	-0.00089677953
239	0xb92219b8	-0.00015459105
240	0x3cd08433	0.025453662
241	0x3c07436a	0.008255819
242	0xba5f3753	-0.0008515019
243	0xbbbfb5b5	-0.0058505186
244	0x3bac5110	0.005258687
245	0xbc979703	-0.018504625
246	0xba5f4a68	-0.00085178623
247	0xbbbfb5b5	-0.0058505186
248	0x3cee2949	0.02907242
249	0x3ba18036	0.004928614
250	0xbb2b2daf	-0.002611976
251	0xbc1f48ea	-0.009721974
252	0x3b9ca519	0.0047804234
253	0xbc8c3134	-0.017113306
254	0xbb2b40ff	-0.002613127
255	0xbc1f48ea	-0.009721974

fcs1.bias f4 [128]
0	0xbc5ccd40	-0.01347667
1	0xbc154fbe	-0.00911325
2	0xbc6df101	-0.014522792
3	0xbc945b7a	-0.018110026
4	0xbb99af9e	-0.0046901247
5	0xbb2bb59f	-0.0026200784
6	0xbca90936	-0.020634275
7	0xbcdd07c7	-0.026981248
8	0xbce3f689	-0.027827518
9	0xb982d655	-0.00024955222
10	0xbbb95f99	-0.005657148
11	0xbb7785eb	-0.003776903
12	0xbd9f5eab	-0.07781728
13	0x39d512b5	0.00040640464
14	0xbaf2498a	-0.0018485051
15	0xbb4938b0	-0.0030703954
16	0xbc1022bf	-0.008797347
17	0xbbc5eae4	-0.006039964
18	0xba661ca4	-0.00087780715
19	0xb7cad2db	-2.4178464e-05
20	0xbbfe2af4	-0.0077565853
21	0xbc03e141	-0.00804931
22	0xbbfdce1e	-0.0077455183
23	0xbc118e93	-0.00888409
24	0x3d8b1818	0.06791705
25	0xba867b5c	-0.0010260153
26	0xbc385f2d	-0.01125316
27	0xba7cd7dc	-0.00096452027
28	0xbb1fdda6	-0.0024393587
29	0xbc69c5d6	-0.014268359
30	0xbbfeaa34	-0.0077717546
31	0xbc1aff09	-0.009460219
32	0xbb86190a	-0.0040923404
33	0x3ad96d18	0.0016588299
34	0xbb128b8f	-0.0022361015
35	0xbc9d3f68	-0.019195274
36	0xb809ac84	-3.2824013e-05
37	0xbc0c95d1	-0.008580641
38	0xbbc4df42	-0.0060080597
39	0xbbfad936	-0.007655288
40	0xbcaf3ac6	-0.02139033
41	0xbcc6b260	-0.024254978
42	0xbb2eb79a	-0.0026659728
43	0xb9857248	-0.00025452883
44	0xbba47834	-0.005019212
45	0xbcd21bb5	-0.025647977
46	0xbb11f7fc	-0.0022273054
47	0xbb980bbf	-0.004640072
48	0xbaf92481	-0.0019008071
49	0xbc347dea	-0.011016348
50	0xbc656ed0	-0.014003471
51	0xbc7a25a9	-0.015267768
52	0xbada8688	-0.0016672174
53	0xbba8059d	-0.0051276223
54	0xba4e3eb2	-0.00078676187
55	0x3e90cc13	0.28280696
56	0xb83a9989	-4.4488846e-05
57	0xbaacefbe	-0.0013194007
58	0xba308f7d	-0.00067352486
59	0xbbbdd180	-0.0057927966
60	0xb935e4b4	-0.00017346704
61	0x3d24304d	0.040085126
62	0xbc95b38a	-0.018274087
63	0x3dfdff8f	0.124022596
64	0xbd081a91	-0.03322846
65	0xba0f21fb	-0.00054600806
66	0xbaacda76	-0.0013187665
67	0x3d6c84e0	0.057743907
68	0xbcd31f58	-0.025771782
69	0xbc3ecaef	-0.011645063
70	0xbb63e591	-0.0034774283
71	0xb910bf42	-0.00013804159
72	0xb823892b	-3.8989976e-05
73	0xbb7d9145	-0.0038691324
74	0xbc817282	-0.015801672
75	0xbd44cef6	-0.048048936
76	0xbd00924a	-0.031389512
77	0xbb0befe4	-0.0021352703
78	0xbca32909	-0.019917028
79	0xbcbe421c	-0.023224883
80	0xb9578206	-0.00020552435
81	0xbb3d0657	-0.002884289
82	0xbaac7954	-0.0013158717
83	0xbc1e4dc8	-0.009662099
84	0xbd13c19f	-0.036073323
85	0xbb3c588f	-0.0028739308
86	0x3ab7c79c	0.001402128
87	0xbb9708fa	-0.0046092244
88	0xb9be0bd7	-0.00036248445
89	0xbc8aa65e	-0.016925033
90	0xbcf912f2	-0.030404542
91	0xbc372795	-0.011178871
92	0xbc364631	-0.011125133
93	0xbb92863f	-0.00447157
94	0x3b7fed3f	0.0039051322
95	0xbcb38499	-0.021913813
96	0xbbf8e76e	-0.007595948
97	0xbb91c583	-0.004448594
98	0xbb2418e4	-0.002503925
99	0xba4f1be7	-0.0007900581
100	0xb9838cf8	-0.00025091297
101	0xbcfc98d7	-0.030834598
102	0xbc87c279	-0.016572224
103	0xbcce426b	-0.025178155
104	0xbd2b104c	-0.04176359
105	0x3a8ac712	0.0010587892
106	0xbba8fbd8	-0.0051569752
107	0xbc021c24	-0.00794128
108	0xb9209d49	-0.00015317382
109	0xb8673b1f	-5.5129753e-05
110	0xbae7ca41	-0.0017684178
111	0x3d535c5d	0.051601756
112	0xba8ef766	-0.0010907471
113	0xbb8ec71c	-0.004357232
114	0x3ea3b4c3	0.31973848
115	0xbcc1ee5e	-0.023673233
116	0xbd21408e	-0.039368205
117	0xbc00e9a7	-0.007868207
118	0xbb6128e7	-0.0034356655
119	0xbb1ce9d9	-0.0023943095
120	0xbb99dc51	-0.004695453
121	0xbc241296	-0.010014197
122	0xbc061dae	-0.008185787
123	0xbb2210cd	-0.0024729252
124	0xbc44c1c0	-0.012009084
125	0xbbb3b4b1	-0.0054841866
126	0xbc23bf68	-0.009994365
127	0xbaa36d32	-0.0012468456

fc2.weight f4 [128, 130]
0	0x000c5a56	1.134432e-39
1	0x00515a32	7.471031e-39
2	0x001d9751	2.717511e-39
3	0x002a34ef	3.87608e-39
4	0x80169b40	-2.076074e-39
5	0x0035539a	4.897272e-39
6	0x001a15ad	2.395499e-39
7	0x800a651f	-9.5463e-40
8	0x000763b4	6.78615e-40
9	0x0020bb5c	3.005948e-39
10	0x80525a2b	-7.562857e-39
11	0x802c66eb	-4.077682e-39
12	0x003c8eca	5.561353e-39
13	0x004f0d5e	7.2598e-39
14	0x804ce71f	-7.062408e-39
15	0x004a6deb	6.835258e-39
16	0x001f361a	2.866308e-39
17	0x004bcb4e	6.960594e-39
18	0x801e7952	-2.798586e-39
19	0x00413b4f	5.990583e-39
20	0x804f3a7f	-7.275989e-39
21	0x804f6768	-7.2921e-39
22	0x004a7ac1	6.839863e-39
23	0x802bbebe	-4.017352e-39
24	0x0032f455	4.679425e-39
25	0x00100774	1.472042e-39
26	0x80343933	-4.795965e-39
27	0x000c2df2	1.118508e-39
28	0x803cc0ce	-5.579295e-39
29	0x800fa9f5	-1.438502e-39
30	0x0008ec0c	8.19362e-40
31	0x80139eb9	-1.801813e-39
32	0x8007a523	-7.02088e-40
33	0x000d13a5	1.200909e-39
34	0x804674f3	-6.470438e-39
35	0x8031db96	-4.578712e-39
36	0x004e3b07	7.184344e-39
37	0x804a24b2	-6.80899e-39
38	0x0014c4f8	1.907369e-39
39	0x80500a19	-7.350462e-39
40	0x0006e8ad	6.34481e-40
41	0x801e59df	-2.787305e-39
42	0x0020692f	2.976469e-39
43	0x80282b15	-3.688875e-39
44	0x8025cd1c	-3.471493e-39
45	0x00523a65	7.551459e-39
46	0x802f9d8f	-4.37279e-39
47	0x00252cc8	3.413978e-39
48	0x001f8d9c	2.8977e-39
49	0x801dd47b	-2.739453e-39
50	0x002c246f	4.053832e-39
51	0x001c70e0	2.611886e-39
52	0x80485ea8	-6.646112e-39
53	0x001a9c75	2.443849e-39
54	0x803908e2	-5.23781e-39
55	0x8a8f3a49	-1.3792324e-32
56	0x004d4d57	7.099078e-39
57	0x801256da	-1.684195e-39
58	0x805320b2	-7.634075e-39
59	0x004c63da	7.015318e-39
60	0x0043320b	6.17093e-39
61	0x8055e56f	-7.888322e-39
62	0x002111be	3.036936e-39
63	0x979e2fda	-1.022259e-24
64	0x00239478	3.267503e-39
65	0x804ed7b3	-7.240547e-39
66	0x001c0c65	2.57584e-39
67	0x00136731	1.781893e-39
68	0x0026c041	3.558717e-39
69	0x804a41de	-6.819455e-39
70	0x8031ab65	-4.561424e-39
71	0x80514abb	-7.465483e-39
72	0x0020206b	2.950365e-39
73	0x802410f2	-3.312157e-39
74	0x804f8938	-7.304229e-39
75	0x004d8eb4	7.122525e-39
76	0x000506ba	4.6159e-40
77	0x00494325	6.728078e-39
78	0x804e5fe2	-7.197565e-39
79	0x800fce94	-1.451639e-39
80	0x801d9f7c	-2.720442e-39
81	0x800599ed	-5.14396e-40
82	0x8034699b	-4.81333e-39
83	0x004ee445	7.245056e-39
84	0x802285fe	-3.170474e-39
85	0x8052f48e	-7.61824e-39
86	0x00474a92	6.547071e-39
87	0x8002f7da	-2.72583e-40
88	0x802940d2	-3.788508e-39
89	0x80299ec9	-3.822217e-39
90	0x802a86b5	-3.905415e-39
91	0x00035ce2	3.08827e-40
92	0x803a9f40	-5.383587e-39
93	0x005141c9	7.462274e-39
94	0x9a6117e0	-4.6548196e-23
95	0x00498855	6.752898e-39
96	0x8043f920	-6.242347e-39
97	0x00288f04	3.724724e-39
98	0x80500893	-7.349916e-39
99	0x80347507	-4.817427e-39
100	0x003ed496	5.770062e-39
101	0x802a1932	-3.866129e-39
102	0x802b35e5	-3.96826e-39
103	0x00166e14	2.05987e-39
104	0x80192819	-2.310272e-39
105	0x80149e3a	-1.893471e-39
106	0x8046b82f	-6.494557e-39
107	0x802ae37b	-3.938695e-39
108	0x0018ad10	2.266135e-39
109	0x8021360d	-3.049961e-39
110	0x80205ecb	-2.972741e-39
111	0x8021dc36	-3.109568e-39
112	0x0050c9e4	7.419264e-39
113	0x800c5c94	-1.135237e-39
114	0x00172ab6	2.127538e-39
115	0x002b29b2	3.963884e-39
116	0x0045ee3f	6.422116e-39
117	0x804f5d3c	-7.28845e-39
118	0x00452ed3	6.353447e-39
119	0x002d04a7	4.134266e-39
120	0x0035ac5e	4.929115e-39
121	0x8035ef0c	-4.953035e-39
122	0x803af93c	-5.415867e-39
123	0x00193055	2.313226e-39
124	0x004e7d38	7.208089e-39
125	0x803e3cc3	-5.715598e-39
126	0x804eea92	-7.247317e-39
127	0x802dcafc	-4.205414e-39
128	0x80243913	-3.326552e-39
129	0x00033de4	2.97709e-40
130	0x8051b1f6	-7.502516e-39
131	0x002d0685	4.134936e-39
132	0x003ffa92	5.875524e-39
133	0x00442dcd	6.261244e-39
134	0x803a0f2e	-5.331904e-39
135	0x802e4779	-4.250072e-39
136	0x800d0275	-1.194743e-39
137	0x0037ba8d	5.117874e-39
138	0x003d1e75	5.612891e-39
139	0xa421bc0e	-3.50706e-17
140	0x8040c8c7	-5.949497e-39
141	0x803f59ba	-5.817824e-39
142	0x8021ff07	-3.122058e-39
143	0x0041d2a3	6.04487e-39
144	0x805025bf	-7.36038e-39
145	0x002221cd	3.134532e-39
146	0x00279f9b	3.63884e-39
147	0x8026af18	-3.55256e-39
148	0x00035270	3.0508e-40
149	0x0006f3cb	6.3847e-40
150	0x004c29ee	6.994539e-39
151	0x00318980	4.549265e-39
152	0x8043e03d	-6.23342e-39
153	0x0016babf	2.087373e-39
154	0x8017432e	-2.136316e-39
155	0x8005eee1	-5.44871e-40
156	0x00530ce9	7.626977e-39
157	0x8046324c	-6.446528e-39
158	0x8043cef3	-6.227218e-39
159	0x800997eb	-8.81017e-40
160	0x000b90b6	1.062103e-39
161	0x002d6951	4.170378e-39
162	0x8000daee	-7.8537e-41
163	0x8050140d	-7.354033e-39
164	0x803afc7c	-5.417033e-39
165	0x804d63f1	-7.107185e-39
166	0x8002f516	-2.71591e-40
167	0x00114e05	1.589192e-39
168	0x0006fecd	6.42418e-40
169	0x000ec6eb	1.357055e-39
170	0x003def12	5.687728e-39
171	0x804fe3c5	-7.336713e-39
172	0x801b8bc2	-2.529694e-39
173	0x8050f446	-7.434468e-39
174	0x804de92e	-7.154982e-39
175	0x000d8a6e	1.24352e-39
176	0x801a90cf	-2.43967e-39
177	0x00169214	2.072784e-39
178	0x804f87e3	-7.303751e-39
179	0x800ae69f	-1.001086e-39
180	0x8050c02e	-7.415781e-39
181	0x0010e155	1.550202e-39
182	0x80334234	-4.70736e-39
183	0x800004e5	-1.756e-42
184	0x80221f8b	-3.133722e-39
185	0xbbd7beab	-0.0065840087
186	0x8012b855	-1.719165e-39
187	0x803521fa	-4.87947e-39
188	0x004d3bd9	7.092802e-39
189	0x003d8b5e	5.651961e-39
190	0x002ac0b4	3.92622e-39
191	0xa948ccb8	-4.4586486e-14
192	0x0036bae2	5.026158e-39
193	0x803c4e84	-5.538296e-39
194	0x00094c6e	8.53937e-40
195	0x8040bffb	-5.946341e-39
196	0x001356a5	1.775957e-39
197	0x979be810	-1.0075221e-24
198	0x9d24f84a	-2.1833582e-21
199	0x0031a99b	4.560782e-39
200	0x00163c34	2.041978e-39
201	0x80493b6a	-6.725305e-39
202	0x003a87cc	5.375174e-39
203	0x0027c919	3.653725e-39
204	0x001e07a9	2.757813e-39
205	0xa91a3200	-3.4238237e-14
206	0x80175727	-2.143481e-39
207	0x8025af1c	-3.460731e-39
208	0x801696d4	-2.074488e-39
209	0x00215029	3.059327e-39
210	0x0040edff	5.962849e-39
211	0x804ac5be	-6.866763e-39
212	0x0034dd7d	4.854901e-39
213	0x800a38d4	-9.38741e-40
214	0x804ce414	-7.061317e-39
215	0x801edf90	-2.835264e-39
216	0x8000330b	-1.8311e-41
217	0x002ff6f6	4.404861e-39
218	0x00292b57	3.780803e-39
219	0x802e80f0	-4.270687e-39
220	0x001cfd57	2.662275e-39
221	0x00485ca9	6.645396e-39
222	0x0002f8df	2.72949e-40
223	0x804cae43	-7.042011e-39
224	0x004bde89	6.967493e-39
225	0x0045b29b	6.400721e-39
226	0x0010a917	1.530026e-39
227	0x00228a00	3.171912e-39
228	0x003cc0f3	5.579347e-39
229	0x801e88fa	-2.804203e-39
230	0x00330d0a	4.688288e-39
231	0xa464b3f6	-4.9592052e-17
232	0x004e33ff	7.181821e-39
233	0x1144b3f9	1.5517132e-28
234	0x00020fcb	1.89336e-40
235	0x064534a9	3.709027e-35
236	0x0015d309	2.00425e-39
237	0x80483e84	-6.634582e-39
238	0x0044e919	6.328433e-39
239	0x000c757d	1.144173e-39
240	0x00016c11	1.30602e-40
241	0x800eca66	-1.358304e-39
242	0x8016cf5e	-2.09477e-39
243	0x003ff245	5.872546e-39
244	0x930fb1f8	-1.8136883e-27
245	0x80521338	-7.537405e-39
246	0x80338fbe	-4.735175e-39
247	0xa95dc13f	-4.9239472e-14
248	0x8c567446	-1.652095e-31
249	0x0033f8e7	4.7729e-39
250	0x800abb80	-9.85617e-40
251	0x804e9ca6	-7.219364e-39
252	0x0043dec4	6.232891e-39
253	0x804b8732	-6.936161e-39
254	0x000affcb	1.010116e-39
255	0x8027d1c6	-3.656837e-39

fc2.bias f4 [128]
0	0x802f34ee	-4.335256e-39
1	0xad98ea5a	-1.7384472e-11
2	0xb07155e7	-8.7797364e-10
3	0xb1be66c1	-5.5414096e-09
4	0xbb6a4ede	-0.0035752575
5	0xb96de29e	-0.00022686503
6	0xbc2f7fec	-0.010711651
7	0xbccc4dcb	-0.024939438
8	0xb7a35dc7	-1.9474783e-05
9	0x94300d1d	-8.888315e-27
10	0x81deae47	-8.1799996e-38
11	0xb608567c	-2.031592e-06
12	0x3e5f8d5f	0.21831273
13	0x9ae474da	-9.4487374e-23
14	0xbb4d64ef	-0.0031340679
15	0xaa770ee2	-2.194317e-13
16	0xaf5fb5c5	-2.034631e-10
17	0xb3ba2607	-8.668217e-08
18	0xbc86c420	-0.016450942
19	0x9c1b44c7	-5.137409e-22
20	0xb029c39b	-6.1759814e-10
21	0xbcd51dde	-0.026015218
22	0xbb33ce41	-0.002743617
23	0x91b06bdd	-2.783438e-28
24	0xb1dd0bbd	-6.433281e-09
25	0x8dd48045	-1.30963885e-30
26	0x9b5f9556	-1.8494381e-22
27	0xa537a7da	-1.592959e-16
28	0xaa3610aa	-1.6170629e-13
29	0xb96d1754	-0.00022610772
30	0x9a653225	-4.7396596e-23
31	0xbce6fe50	-0.028197438
32	0xa97335b7	-5.400343e-14
33	0xa36e88ed	-1.2931001e-17
34	0x3ddb13f8	0.10697168
35	0xb2de87e0	-2.590599e-08
36	0xbd6a3c11	-0.05718619
37	0x3dc8ceb6	0.09805052
38	0xac744e58	-3.4717975e-12
39	0xb3ce8a48	-9.617776e-08
40	0x3e0f0f1e	0.1397061
41	0xbcdd4da4	-0.027014561
42	0xb7838cd2	-1.5681991e-05
43	0xbc7d7df4	-0.015471924
44	0xbdf0a019	-0.11749286
45	0xb212d147	-8.545903e-09
46	0xbb9ac7b0	-0.0047235116
47	0xaade55d0	-3.9494666e-13
48	0x3e652700	0.22378159
49	0x9b9a7055	-2.5549756e-22
50	0xab10e2a4	-5.1473604e-13
51	0xa7895371	-3.8115606e-15
52	0xa08c192e	-2.3733585e-19
53	0x8cf938fc	-3.839882e-31
54	0xbd6fb46d	-0.058521677
55	0xb342c59a	-4.5348862e-08
56	0xbc601760	-0.013677448
57	0xb598a24e	-1.1372119e-06
58	0xb8ab6852	-8.1733466e-05
59	0xb73d303d	-1.1276509e-05
60	0xbadab8f0	-0.0016687196
61	0x95717ddc	-4.8768848e-26
62	0x98cc1c90	-5.2761605e-24
63	0xbbf858a4	-0.007578926
64	0xa95bf18c	-4.8837277e-14
65	0xa73bf122	-2.6082182e-15
66	0xbdad13d6	-0.08451049
67	0xbcacef4c	-0.0211102
68	0x878180b2	-1.9485403e-34
69	0xbb302883	-0.0026879616
70	0xb7d2a18a	-2.5109173e-05
71	0xbd1ea3ec	-0.038730547
72	0xb5c87015	-1.4933781e-06
73	0xba8b427f	-0.0010624676
74	0xbbc5cdee	-0.0060365116
75	0xb4178adb	-1.4113486e-07
76	0xbbc42e7d	-0.005986987
77	0xb4593349	-2.0228357e-07
78	0xa261fddc	-3.0627578e-18
79	0xb207d488	-7.906358e-09
80	0x99fdbdc0	-2.6236226e-23
81	0xb49c89ea	-2.915761e-07
82	0xba54aee4	-0.0008113219
83	0xaf7a02fe	-2.273843e-10
84	0xbbac0c07	-0.005250457
85	0xb281b720	-1.5100852e-08
86	0xbc932cd4	-0.017965712
87	0xb7f6b43a	-2.940941e-05
88	0x3cf3d5fc	0.029765122
89	0x9ec0962b	-2.0390899e-20
90	0xb3b253ca	-8.304012e-08
91	0xbb965bbb	-0.004588572
92	0xa536b73f	-1.584807e-16
93	0x96125ff7	-1.1824067e-25
94	0xb500da4d	-4.8001385e-07
95	0xbc9391f2	-0.018013928
96	0xb14c2e50	-2.9712233e-09
97	0xbb019b78	-0.0019776504
98	0xbc78be90	-0.015182152
99	0xb97fe9b4	-0.00024405756
100	0xbbe61496	-0.007021497
101	0xb2d1367e	-2.4355582e-08
102	0xbd1a2c0f	-0.037639674
103	0xb8d43c78	-0.00010120211
104	0xbb58acff	-0.0033062098
105	0xb4e2924b	-4.2202223e-07
106	0xbe01b1a7	-0.12665425
107	0x8e8eb59c	-3.5180586e-30
108	0xa35acf01	-1.18616385e-17
109	0xa598f118	-2.6531168e-16
110	0xa6f272a9	-1.6823202e-15
111	0xbac55534	-0.00150553
112	0xbbe5088e	-0.006989545
113	0xbaad6aea	-0.0013230715
114	0xb893865b	-7.034532e-05
115	0xb9e31048	-0.00043308944
116	0x3d6e77c7	0.058219697
117	0xb7c4984d	-2.3435941e-05
118	0xb9093a10	-0.00013086968
119	0xb92e955c	-0.00016649574
120	0xb9da11f9	-0.0004159359
121	0xbe1689ff	-0.14701079
122	0x3e31c17b	0.17358963
123	0xa4310d61	-3.839209e-17
124	0xb405f0a4	-1.2474135e-07
125	0x9b405c8b	-1.591177e-22
126	0xaaf015b5	-4.2647626e-13
127	0xb466a48c	-2.1480281e-07
