checkpoint.pth (torch_old, 189051 bytes, 22 tensors)

fc1.weight f4 [128, 24]
00000000: a8c2 073f f4f1 17bf ae60 8cbe 99b8 a8be
00000010: 94ae 0c3e faff 893c 9c09 8bbe ca39 afbe
00000020: 4855 f23e e4df 46bf f4db 083e 47d9 08be
00000030: 133d 423e 2ee8 173f 784e c13d aaa2 35be
00000040: cc5c d63e 60f7 51bf 15eb 4cbb 44e1 3a3e
00000050: bfe5 d33d f214 753f f384 443d df5b 943e
00000060: b0fa 213e bed1 16be 1c91 84be 536f 42be
00000070: 0157 5dbe 0d28 b2bf 35be a9be f991 d9bd
00000080: ad7f 663e 1686 31be 9fa1 a93d 4323 cfbe
00000090: e986 74be 4245 a8bf 840e a2bb 398c d3be
000000a0: ebda 463e 0fef 1fbc 2a3f 18be 6d79 b7bd
000000b0: 28ba 53be 4746 30bf 841c 2ebe 3836 3cbe
000000c0: b5e3 143f 2a72 f6be 7cdd c23e 9d74 e5be
000000d0: a7e6 c73d f3b2 33be bca2 c53e dfeb cabe
000000e0: 209e 8f3e 67dd 49bf 4e68 b2bc a318 84be
000000f0: 0edb 523d 8af4 1b3e 71ad 233b e4dc 8bbe
00000100: 8f42 5e3e f9a1 56bf a334 d3bd 3e11 4d3d
00000110: cd69 fdbd e328 713e 0a38 01bd 4e00 6d3d
00000120: e7db 3abe 58f9 e63e 8fcb c1bd 188f 2abe
00000130: 30a5 19be 1c39 9fbe ca79 773d fa2c 1cbe
00000140: 5dcb 25be 96f1 b73e ac19 0b3d 2a1b 2a3c
00000150: c7e5 4abe 3893 a0bf a001 4e3d 007a cfbd
00000160: e994 58be 5ea6 c23e 089e 4cbe e5a4 d0bd
00000170: 8c4d 45be 8174 0fc0 bdce 31be 8393 05be
00000180: e61e 2cbd ecc8 073f ab29 89bc aaca 01bf
00000190: 6626 af3f ed46 863d f578 98bd 5e76 cfbe
000001a0: 066f 9ebd 393c 7d3e e153 af3d c23b 84be
000001b0: 9bfb f33f 085b 82be 3a91 643e cfc5 92be
000001c0: 3af2 61bd 77c8 d03e e7ed 48bd 6867 4d3d
000001d0: 4ed7 0840 7a7f eabe 097b 1ebe 85d2 923d
000001e0: 10e3 fc3d a881 db3d d327 c7bd 4cd3 fa3e
000001f0: 3ac0 b33e 61b3 ab3e cc7f d63c a207 de3e
00000200: 9554 c13d a9a1 b83e 7ac3 83be d7a3 083f
00000210: cd57 263f 7c9a a93e 48ce 32be 2e95 ee3e
00000220: 93d2 f53d f7a1 ee3e 6980 21bd f216 4c3e
00000230: 1733 6e3f b2d2 fd3e d921 5fbd 6691 603e
00000240: dd67 e83c 2623 c93e 6c60 e6bd 4939 943c
00000250: 9325 643f 0d51 eabc 0f8e 26be e277 0ebe
00000260: 55e6 d13d 7b9e 853e b453 1d3d 725c 6fbe
00000270: 0e3c 563f 65cd 4f3e b680 da3b 3668 e0bd
00000280: 881d 3f3b 5129 9ebd 1a48 62be 218d d0be
00000290: 16e7 223f 2acb d43e 42e4 fbbd 3719 00bf
000002a0: 2584 1f3e 70ce 09bf bfea d33d 0a3d 8dbe
000002b0: 41fa 6b3e b037 fa3e 511d ef3c 0e65 a6be
000002c0: 4210 003e 4bf4 30bf 9982 f8bc 119e cebe
000002d0: 8595 48be 665a 8e3f 668d 6fbc 0a5b 07bf
000002e0: 0dfc d13d 91c4 34bf 88d8 0e3d 1461 24bf
000002f0: 947f fbbe 79c0 c83f 8fd1 ebbd 6062 22bf
00000300: 51db f3be 6eea 003f 99ad b93d 6314 cd3c
00000310: 222b 6ebe 33de 83bf f504 9bbd b0fd 9f3d
00000320: 502a 04bf 3760 4b3f e6d4 303c b523 f83e
00000330: 837f 59bd fd42 dcbf 6091 b7bd bd64 043f
00000340: 8b6f afbe dfba 5d3f d552 cb3c b53d a8be
00000350: e6e5 70bd ad31 20c0 568f d13b db93 d8be
00000360: cb0e ff3e 8f06 5cbf abeb 07bc 47ec 06be
00000370: f351 663d 868e 04be 1643 1a3d 931e 8cbe
00000380: 077c 213f 3da5 3abf 0c73 533d e2f8 33bf
00000390: bc18 933e ef7e 763d cde2 703d b13e 4abf
000003a0: 95d3 3e3f 895a 3fbf a9a2 6abd 2cb5 ecbe
000003b0: de14 cb3e 9c3c ec3e bb4c bd3d 3173 cdbe
000003c0: a908 ccbe 7787 5fbf 54b8 a33d f974 39bd
000003d0: d37d e53e 2741 733c 2e71 6d3c 9327 cabc
000003e0: bb6f 49be 14cb 34bf 2ba4 93bb b04f a33e
000003f0: a960 4a3f ab11 50bd 90f7 31bc fc74 673e
0.53031397 -0.59353566 -0.2741751 -0.32953337 0.13738471 0.016845692 -0.2715577 -0.34223777
0.4733069 -0.7768538 0.13365155 -0.13364135 0.1896861 0.59338653 0.09438795 -0.17737833
0.41867673 -0.8201809 -0.003126805 0.18249995 0.10346555 0.95735085 0.047978353 0.28976342
0.15818286 -0.14728448 -0.2589196 -0.1898778 -0.2161522 -1.3918473 -0.3315293 -0.10623545
0.22509642 -0.17336306 0.0828278 -0.4045659 -0.23879589 -1.3146136 -0.004945578 -0.4131792
0.19419448 -0.009761586 -0.14867845 -0.08958707 -0.20676482 -0.68857235 -0.17003065 -0.18380058
0.58159953 -0.48133975 0.38059604 -0.4481553 0.0976079 -0.17548732 0.3860072 -0.3963308
0.28050327 -0.7885346 -0.021778252 -0.25800046 0.051478438 0.15230003 0.0024975205 -0.27316964
0.21705078 -0.838409 -0.10312774 0.05006527 -0.123736955 0.23550753 -0.031547584 0.05786162
-0.18247949 0.4511211 -0.09462654 -0.16656148 -0.1500442 -0.31098258 0.06041888 -0.15251532
-0.16190858 0.35926503 0.03396003 0.010382453 -0.19814216 -1.2544928 0.05029452 -0.101306915
-0.21150555 0.38017553 -0.19982159 -0.10187701 -0.19267863 -2.2414858 -0.1736402 -0.13044553
-0.042021655 0.5304096 -0.016743502 -0.50699866 1.3683593 0.06556497 -0.07444946 -0.40519994
-0.0773602 0.24730004 0.085609205 -0.25826842 1.9061159 -0.25460076 0.22321025 -0.2866654
-0.055162646 0.40777943 -0.049055006 0.050147444 2.1381412 -0.45800382 -0.15476622 0.0716906
0.12347996 0.10718089 -0.09724393 0.48989332 0.35107595 0.33535293 0.026183985 0.43365198
0.09439961 0.36060837 -0.25735074 0.53375 0.64977723 0.33125675 -0.17461503 0.4659819
0.120030545 0.46607944 -0.039429102 0.19930628 0.93046707 0.4957481 -0.05447564 0.21930465
0.028369838 0.3928463 -0.1124886 0.018093722 0.89119834 -0.028603101 -0.16265129 -0.13912919
0.102490105 0.26097474 0.038409904 -0.23375109 0.83685386 0.20293196 0.0066681756 -0.10957377
0.002916189 -0.07722724 -0.22097817 -0.40732673 0.6363386 0.41561252 -0.12299396 -0.50038475
0.15577753 -0.53830624 0.10347509 -0.27585632 0.23044683 0.4887061 0.029188784 -0.32498974
0.12506202 -0.6912276 -0.030335711 -0.4035497 -0.19588287 1.1121337 -0.014621114 -0.5287329
0.10253153 -0.70612437 0.03487447 -0.6421063 -0.49120772 1.5683738 -0.115145795 -0.6343136
-0.47628263 0.5035771 0.09066314 0.025034135 -0.23258641 -1.0302185 -0.07569305 0.07812059
-0.51627064 0.7944369 0.010792946 0.48464742 -0.05310012 -1.7207943 -0.08963275 0.51716214
-0.34264788 0.8661327 0.02481977 -0.3285958 -0.058813 -2.503032 0.006395261 -0.42300305
0.49815974 -0.8594751 -0.008295934 -0.1317607 0.056230497 -0.12944993 0.037661634 -0.27367076
0.63079876 -0.72908384 0.05162339 -0.7030164 0.28729808 0.060179647 0.058810044 -0.7900191
0.745416 -0.7474752 -0.05728403 -0.46231973 0.39664358 0.4613999 0.09243151 -0.40126947
-0.39850357 -0.8731608 0.07994142 -0.04527757 0.4482256 0.0148470765 0.014492316 -0.024677074
-0.19671528 -0.7062237 -0.0045056543 0.31896734 0.7905374 -0.0507981 -0.010862246 0.2260322

fc1.bias f4 [128]
00000000: 3a73 c0be 3e08 c2be 83f4 cabd cfdb 85be
00000010: 6410 14be 7dc4 25bd d25a 69bd 4747 29be
00000020: 6646 d73b 717e 45bf 33ba cfba 053d edbe
00000030: 2d78 99be b92b 0fbd 1fcd 013e d792 4cbe
00000040: 1f91 c4bc 9999 68bd 2066 50be 9a04 41be
00000050: d16e 34bf 0b58 8d3e a497 7ebe c949 0c3c
00000060: 2d99 49bf 8e34 30bf f126 eebe d7eb 14bf
00000070: c6f1 9dbe 718f 9c3c 413f 46bf 91f3 e5be
00000080: 5c20 acbd 8898 1dbe 2263 1bbe eb29 123e
00000090: f5df 81be 891b b1be 4153 75be 3cd4 0abe
000000a0: c326 15bf 7389 9d3e c942 08bf ef7f edbe
000000b0: 69f5 01bf 11e4 55be d561 83be eb60 f7be
000000c0: c2f2 a7be db96 7cbe 12a6 77bc 528a 233e
000000d0: b27c d4be 5930 953d 7931 c2be 46b6 ecbd
000000e0: d20c d1bd 05c1 033e cb27 b0bb 4f8a d6be
000000f0: d867 2fbf 2229 1bbf b287 18bf a30b acbe
00000100: aa10 85be 15db 33bf f77c d4bd a45a 853e
00000110: cdea e5be c019 80bd 1ead b5be d455 1fbf
00000120: 318f 553e 51fd 6bbc 3e4c b53d 2217 82be
00000130: e266 6dbe 1339 c0b8 f982 03bf bee1 a4be
00000140: fb7a a0be c65b 763d 6bec b9be 76ff 88bd
00000150: f1c2 9c3e 4aa1 c33e 8765 763e 3110 14bf
00000160: 2601 21bf 0364 e7be ac98 e5be d712 65bd
00000170: d104 98be 8c17 a7be 0654 78bd 5a4f 1cbe
00000180: 5664 15bc fb0a 49bf 9e81 e1bb 417d 013f
00000190: 1fbb e33c aaaf 10bf cb96 4dbe 37bd c1be
000001a0: 98c9 c1be af0c fabe af0a 69bd 5e04 dbbe
000001b0: 668a f3be 5160 b2bb de40 27bd 6036 a4be
000001c0: b096 9ebe c9f7 d8be 3235 92be 1f07 ce3d
000001d0: b052 af3b 8932 c2be 3c78 aebd 72c6 fcbd
000001e0: 7b6f bebe 8a71 da3d cad3 1cbf ed86 0b3e
000001f0: 0f3d acbd f152 13bf fe40 053f e155 18be
-0.3758791 -0.37896913 -0.09909918 -0.26144263 -0.14459378 -0.04047059 -0.05697138 -0.16531096
0.0065696714 -0.7714606 -0.0015848338 -0.46335617 -0.299745 -0.034953807 0.12675904 -0.1997789
-0.02399498 -0.056787107 -0.20351458 -0.18849412 -0.7048159 0.27606234 -0.24862534 0.008562514
-0.7874935 -0.6883019 -0.46514085 -0.58172363 -0.3084852 0.019111367 -0.7744027 -0.4491239
-0.084046096 -0.15390217 -0.15174535 0.14273803 -0.25366178 -0.3459132 -0.2395754 -0.13557523
-0.5826227 0.30768928 -0.53226906 -0.46386668 -0.5076509 -0.20887782 -0.25660577 -0.4831613
-0.32802397 -0.24666922 -0.015115278 0.15970734 -0.41501385 0.07284612 -0.3792837 -0.115582034
-0.102075234 0.128666 -0.0053758374 -0.41902396 -0.6851783 -0.6060964 -0.59582055 -0.33602628
-0.25989276 -0.7025617 -0.10375398 0.26045716 -0.449057 -0.062549114 -0.3548364 -0.6224034
0.20855404 -0.014403657 0.08852433 -0.25408274 -0.23183778 -9.165904e-05 -0.51371723 -0.32203478
-0.31343827 0.060146116 -0.36313185 -0.0668935 0.30617478 0.3820899 0.24062167 -0.57837206
-0.6289238 -0.4519349 -0.44843042 -0.05592617 -0.29691175 -0.32635152 -0.060627006 -0.15264645
-0.00911816 -0.7853238 -0.0068819067 0.5058175 0.027799187 -0.5651804 -0.20077054 -0.37839672
-0.37849116 -0.48837802 -0.056894954 -0.4277677 -0.47566527 -0.0054436107 -0.040833347 -0.32072735
-0.3097434 -0.42376545 -0.2855621 0.10059952 0.0053504333 -0.3792918 -0.08519027 -0.12342538
-0.37194428 0.10666187 -0.61260664 0.13625689 -0.084100835 -0.57548434 0.52052295 -0.1487651

fc2.weight f4 [64, 128]
00000000: 5bdd a5bd dcbe cbbd 78cc f7bc 9492 ed3e
00000010: 13f7 43be aa8c 46be fd04 d93d c896 b7bd
00000020: ccdb 923f ba75 eb3d c472 e13e 3693 01bd
00000030: 6888 89bc d1bb c1bc c323 9ebf a3e4 0b3e
00000040: 99ee 7a3d 13cb a4be 54f8 2e3d 45f2 fd3e
00000050: 77b9 b0bd 8bf5 a9be ee47 0fbe 4ae6 01bf
00000060: f0ba 1dbe a57f 1cbd c276 19be 8b16 683d
00000070: ca0c a8be 723b 1b3f 1f34 4b3e 7aeb fbbd
00000080: bdb1 c8bc e729 79be 547c 36be 4d58 e8bd
00000090: e1e2 98be 31b1 d43e 0db3 0e3f abeb b8be
000000a0: d08a 123d 3a44 503e 9b4e 903e 1b3f 553e
000000b0: db6f 8cbd 3992 113e f5d9 f9bd d1de 6a3e
000000c0: 698c dbbd babb b7be 3bcd 60bf 6cd1 1abf
000000d0: e9c4 8339 d2cf f8be 5c4d 24be b647 c33d
000000e0: 2424 873d 8cf0 753e e7a2 1ebf 541c 213e
000000f0: e6b5 253e 011a b63d b3fa 8c3e dbf2 873c
00000100: 520f 1bbe 8b94 ec3d bd40 193e 2193 3f3f
00000110: 1054 403e 4ffc 553f 8df2 0ebc b127 88bd
00000120: 3f63 173f 27d6 703d 37d4 b73e fbdd cebd
00000130: b15d 04be 7ce4 f1be 204f 2a3d 01bf 60bd
00000140: fb17 08bf 2c03 c93e 0ec3 103e 5554 793e
00000150: 14ad ff3e 6aca 09bf 80df 54be 74f3 05bd
00000160: 7f65 883e ae82 103e 878d ea3d ae9e 203f
00000170: e260 973d 719c 3439 c244 07bf a602 c73e
00000180: 4b6b 233e 7754 313e d6a2 0e3f 65ad 023f
00000190: 3c26 3abc 2d0b 65be 9c74 c5bd a818 f43d
000001a0: 1af2 95be dafd 00bf 559c 42be c3c5 003e
000001b0: 8153 a5bd 44b3 0cbf b7f2 1ebe 8610 1dbd
000001c0: 6c20 82bd a368 36be 3c37 40be cfad 1d3e
000001d0: e313 d3bd 74fb 4c3c c99e 353e 9344 36bd
000001e0: cfb8 0bbf 0479 733f 332b 7cbc ff78 63bf
000001f0: 686a 083d 221e 1b3e 0371 16bf 8bc3 9d3e
00000200: d965 87bd 7fe0 27bd b135 ddbd ef42 d6bd
00000210: 4995 5ebc 6318 0dbe fe6a 843c 8d76 533d
00000220: ccc6 2dbe 1cd9 9dbd 02c0 60bd 35f7 6ebc
00000230: 4645 0ebd 82d6 b6be a02c e8bd 95a7 4dbe
00000240: b674 a33d 291a 94bd 2cac 1ebd 5b26 b3be
00000250: 874a 8bbd 3172 b4be 7b66 a9bd ea8e 64be
00000260: c7fc e5bd a6da 0c3e f6d0 d3bd 1784 903d
00000270: 0ceb 303d b05f db3c 55a6 0f3e eca5 d4be
00000280: 7e85 e73d e282 0ebe 8f2e ebbd 254f 4abe
00000290: e023 30be fd96 8ebe 0728 cdbd 43e2 0fbe
000002a0: 2824 85bd 3168 12bf 3738 cabd 0009 e3bd
000002b0: 8e50 56bd 58fa b7bd db21 8bbd e453 61bc
000002c0: 7016 643d 312a e7bd 2f01 52bd e003 f9bd
000002d0: d901 b73c 40af 663d 9548 d53d b561 b53c
000002e0: 8951 f3bb 3d36 d3bd b54a f4bd c18d abbe
000002f0: 8d45 0f3e 298a 06be 90d8 a3bc ebf4 153e
00000300: 3dd2 d0bb fd8a cc3d 9819 18bd d7c8 11bd
00000310: 0116 d1bd e2c1 24bd 424e 083d 7004 14be
00000320: 6315 aa3c 312c 0a3e 3fb0 c7bd 14d8 1cbf
00000330: 07e8 5cbb 3c15 5f3d 5412 3b3d 637e 07bd
00000340: 97cb d03d 53c1 85bd 244f d83c db56 e7bc
00000350: 1e5a 66bd 4f7a 53be cd6c 073e 906e c0bc
00000360: 99ef 313e 1cd0 85bd 0133 983d 85b8 f7bd
00000370: 787f 143e 5c6a e8bd 4f09 0dbe 59da 11bd
00000380: a8cf adbd 8af0 8e3d d2d7 8abd 300f bbbc
00000390: 1e87 e1bd 8cd1 863d 86fc 6f3e d257 d5bd
000003a0: 0cd9 29be e9f9 27be 7dcd 8f3d eaff 863d
000003b0: 010a bfbd 9bb7 63be 7a65 c83b b097 42bd
000003c0: 3aa6 a73d ad2b 1fbe 21e5 0fbe 6240 80bd
000003d0: be64 363e 8823 453d 275d 46be 09b1 98bd
000003e0: 3efd 8e3d 75ae c3bd 40fb 3dbe 9dd5 a2be
000003f0: 8a2f 11be 160a 6dbd 20b6 6dbe cf10 6c3d
-0.08098861 -0.09948513 -0.030248865 0.46400893 -0.1913722 -0.19389597 0.105966546 -0.08964306
1.1473327 0.11497064 0.44032872 -0.031634532 -0.016788676 -0.023649128 -1.2354664 0.13661437
0.0612627 -0.32186183 0.042717293 0.495989 -0.086291246 -0.33195147 -0.13992283 -0.5074202
-0.15403342 -0.03820767 -0.14986709 0.056662124 -0.32822257 0.6063758 0.19844101 -0.12300773
-0.024498815 -0.2433239 -0.17820865 -0.11344967 -0.29860595 0.41541436 0.5574196 -0.361173
0.035776913 0.20338526 0.2818497 0.20824854 -0.06857272 0.14215936 -0.12199775 0.2293656
-0.107201405 -0.35885412 -0.87813157 -0.604758 0.00025132977 -0.48596054 -0.16045135 0.09535162
0.0659869 0.24017543 -0.6196732 0.15733463 0.1618267 0.088916786 0.27535018 0.016595295
-0.15142563 0.1155177 0.14966102 0.74833876 0.18782067 0.8358812 -0.008724821 -0.066481955
0.5913581 0.05879798 0.35904095 -0.10100933 -0.12926365 -0.47244632 0.041579366 -0.054869656
-0.5316159 0.39260232 0.14136907 0.24348576 0.49936736 -0.53824484 -0.20788383 -0.032702878
0.26639935 0.1411235 0.114527754 0.62742126 0.07391526 0.00017224417 -0.5283929 0.38869208
0.15958898 0.17317377 0.5571722 0.5104583 -0.011361655 -0.22367544 -0.09641382 0.11918765
-0.2928627 -0.50387347 -0.19004948 0.1257544 -0.08072568 -0.5496104 -0.15522276 -0.038345836
-0.0635384 -0.17813353 -0.1877107 0.15398334 -0.103065275 0.012511123 0.17736353 -0.04449899
-0.5457887 0.9510653 -0.015391159 -0.888565 0.033304602 0.15148214 -0.5876619 0.3081325
-0.06611223 -0.04098558 -0.108012564 -0.10461985 -0.013585397 -0.13778834 0.0161643 0.05162673
-0.16970366 -0.07707426 -0.054870613 -0.014585306 -0.034734033 -0.3571053 -0.113366365 -0.20083459
0.07981245 -0.07231552 -0.038738415 -0.349902 -0.06801324 -0.3524337 -0.082715 -0.22320142
-0.11229854 0.13755283 -0.103425905 0.07056444 0.04319291 0.026779026 0.14028294 -0.41532838
0.113047585 -0.13917115 -0.1148349 -0.19756754 -0.17201185 -0.2784957 -0.100174 -0.14051156
-0.06501037 -0.57190233 -0.098740034 -0.11085701 -0.052322917 -0.08983296 -0.06793567 -0.013752911
0.05568546 -0.11287344 -0.05127066 -0.12158942 0.022339748 0.056319475 0.104142345 0.022141317
-0.007425491 -0.103130795 -0.11928312 -0.33506587 0.13991375 -0.13138641 -0.020000726 0.1464421
-0.0063727186 0.099874474 -0.037133783 -0.035591926 -0.10209275 -0.040223964 0.033277757 -0.14454818
0.020762151 0.1349342 -0.09750413 -0.6126721 -0.0033707635 0.05446361 0.045671776 -0.033079516
0.10195082 -0.06531014 0.026404925 -0.028239658 -0.056238286 -0.20652126 0.13225098 -0.02349022
0.17376556 -0.06533834 0.07431603 -0.12095741 0.1450175 -0.113484114 -0.13773082 -0.035608623
-0.08486873 0.06979473 -0.06779446 -0.02283439 -0.110121 0.06582937 0.23436174 -0.10417141
-0.16586703 -0.16403927 0.07021616 0.065917805 -0.0932808 -0.22238009 0.0061156126 -0.04750794
0.08186002 -0.15544005 -0.1405225 -0.0626228 0.17811868 0.04812959 -0.19371472 -0.07455642
0.06981896 -0.095547594 -0.18552876 -0.318036 -0.14178291 -0.057870947 -0.23214006 0.057633217

fc2.bias f4 [64]
00000000: 678b c4be 5dfa e4bd ab25 7fbe 1c14 1cbe
00000010: 52c6 123f bb43 83be 5c21 03be edc2 e3bc
00000020: fe12 38be 32b0 36be 8528 55be 81de e6be
00000030: df32 143e 3872 5ebe c1e2 b7be 9f66 86be
00000040: ba0d 6abe 5bd4 0b3f 1df0 f9be 6273 14bf
00000050: 766a c6bd bd71 43be 390f a3bd 430f 21bd
00000060: 1444 463e b9c6 ebbd 88f2 3ebf 34b2 8bbe
00000070: 372f cfbd 0d30 15be d772 e4bd d624 e1bd
00000080: 5544 603e 5e95 e5be 008b 7fbe a395 85bd
00000090: 9799 f4be 3f04 4cbe e54b 67bd befc 60bd
000000a0: 3b98 67bc 586b 77bd c4d3 e7bd 8efe 57be
000000b0: 389c 1dbd b326 553e 6b1e ae3e 45b3 5fbe
000000c0: 0477 bfbe 1562 2cbd a3e3 333e 6a77 0cbc
000000d0: 75ed 3a3e 5922 cfbd 0e7b 0abe 2707 41be
000000e0: cebe 5bbe f3ba e4bd 8768 87bd 9bc0 2a3e
000000f0: 9c27 07be 5cbc 35bd c2fd afbe bfc8 d2be
-0.38387606 -0.111805655 -0.24916713 -0.15242046 0.5733386 -0.25637612 -0.12805694 -0.027802909
-0.17975995 -0.1784065 -0.20816238 -0.45091632 0.14472531 -0.21723258 -0.35915187 -0.2625017
-0.22856799 0.54620904 -0.48816004 -0.5798856 -0.096882746 -0.19086356 -0.07961888 -0.039321195
0.19361907 -0.11512513 -0.74588823 -0.27284396 -0.101164274 -0.14569111 -0.111547165 -0.10993354
0.21901067 -0.4484052 -0.24955368 -0.065226816 -0.4777343 -0.19923495 -0.056468863 -0.054928534
-0.014135416 -0.060405105 -0.11319688 -0.21093199 -0.03847906 0.20815544 0.34007582 -0.2184573
-0.3739549 -0.042085726 0.17567305 -0.008573392 0.18254645 -0.10113973 -0.13523504 -0.18850385
-0.21459505 -0.1116847 -0.06611734 0.16675036 -0.13198704 -0.044369087 -0.3437329 -0.41168782

fc3.weight f4 [2, 64]
00000000: 17d2 db3e 775b 75bd 125d 1a3d c635 febe
00000010: d913 02be aa47 ca3d 584c d73a 80c4 c9bc
00000020: 8f40 dc3d 65fe 19bf 2d00 493e c56c 9cbd
00000030: 84c0 18bf 39a9 033c 55e5 81bc bf9a a53e
00000040: cb7e 0c3f 4d2a b9bd 1f7a bbbd 76f7 5a3e
00000050: 9da9 9c3e a8b3 07bd 4c87 8e3e f880 92be
00000060: fa2a 0bbf 31f9 903e ea67 5bbd adfe 43bd
00000070: e777 e3be a040 8e3c a119 7abe d4eb a1bc
00000080: f48e babe c572 12bd 322c cabc c82e cebe
00000090: bb9a d63d ce6f 7c3b 166f 3e3e ea4e 003c
000000a0: d35a 333f 8578 07bf 85fc 0cbd 5c26 12bd
000000b0: 0f5e 113f 8490 38bf 8c43 dabe b3f5 c13e
000000c0: 9064 f63d 13fb 2cbc 572e 63bf 5244 bb3e
000000d0: 15e4 cdbd ddd4 5dbf 2069 1d3f d562 babe
000000e0: ec9e 1f3f 60fd 713c 1229 92be 909c d6be
000000f0: 59c1 4b3c f690 453f 4c48 25bf f3e5 b73e
00000100: ae21 233d c406 eebd 07ad 613e 8c0c 56bf
00000110: 9aba 383f 545d 8bbf 471e 92bd c792 c0bc
00000120: af1c 13bf 5898 503f 96d1 91bf 2c7f d93e
00000130: 1155 f5bd 0ad5 c4be 95ac 2dbf 2ab4 5e3e
00000140: 038e 43bd 442a 453f 808c 12bf 225a bcbe
00000150: 531b 19be d075 bbbe 76da 38bf 417f 37bf
00000160: 6359 08bf b35b 513d 999c 04bf 626c e1bd
00000170: 95c8 3e3d a466 bdbd dc50 a1be d1d7 9f3c
00000180: f18b 443f 7d8c 29be 23e6 09be 7dbb 85be
00000190: ddd0 99bf f774 9fbc db06 4b3e 1edc e1bc
000001a0: af94 5ebf 70f2 5ebe b478 00bd 331d f4bd
000001b0: 31b3 89be 994e 193f 5630 c3be c619 28be
000001c0: a54a 2bbd f4e5 e8bd 2727 293e 06a7 8cbc
000001d0: 8fbe e33e d010 aa3d ec66 67bc 576b a8be
000001e0: baad 523f 6c79 bbbc f97f 183e 4982 bb3d
000001f0: 54ff 1bbd 641d 01be 24b5 d6be 12d2 173f
0.42933723 -0.05990168 0.037686415 -0.496504 -0.12702884 0.0987695 0.001642595 -0.024629831
0.10754501 -0.601538 0.19628973 -0.07637934 -0.59668756 0.008035951 -0.015856424 0.32344624
0.5488097 -0.09041271 -0.09154152 0.21383461 0.30598155 -0.033130318 0.27837598 -0.2861402
-0.5436245 0.28315118 -0.053565897 -0.0478503 -0.44427416 0.0173648 -0.24423839 -0.019765772
-0.3643719 -0.035753984 -0.024679277 -0.40270066 0.10478731 0.003851879 0.18597063 0.007831315
0.7006046 -0.52918273 -0.03442051 -0.035681114 0.5678415 -0.72095513 -0.4262966 0.37882766
0.120308995 -0.010557908 -0.88742584 0.36575562 -0.10053269 -0.8665293 0.61488533 -0.36403528
0.6235187 0.014769882 -0.2854696 -0.41916323 0.012436234 0.7717432 -0.6456344 0.35917625
0.03982704 -0.11622384 0.22038661 -0.83612895 0.7215973 -1.0887856 -0.07134681 -0.023507489
-0.5746564 0.8148246 -1.1392086 0.42479837 -0.11979116 -0.38443786 -0.67841464 0.21748415
-0.047742855 0.7701762 -0.57245636 -0.36787516 -0.1495183 -0.3661332 -0.72208345 -0.7167855
-0.53261393 0.05111284 -0.5180145 -0.110070005 0.04657801 -0.09248093 -0.31507003 0.019512089
0.76776034 -0.16557498 -0.13466696 -0.26119605 -1.2016865 -0.019464953 0.19826834 -0.02757078
-0.86945623 -0.2177217 -0.03136511 -0.11919632 -0.26894525 0.59885556 -0.38122815 -0.16416082
-0.041819233 -0.11371985 0.16518842 -0.017169487 0.44481322 0.08303988 -0.01412366 -0.32894394
0.82296336 -0.022885047 0.14892568 0.09155709 -0.038085297 -0.12608868 -0.41935074 0.59304917

fc3.bias f4 [2]
00000000: 17c2 1abc f473 0a3f
-0.009445689 0.5408318

fcs1.weight f4 [128, 24]
00000000: 3191 1c3b f90e 163a ea89 b0b9 e6fc c539
00000010: 4b50 cc39 2418 a0ba ea89 b0b9 e6fc c539
00000020: 1a7e 533b 4058 fe39 0c92 16ba dd14 f8b9
00000030: 0b13 133a a974 9eba 0c92 16ba dd14 f8b9
00000040: d47e 2e3b 1de6 113a 11d4 9338 8255 143a
00000050: 5c6c 3f3a 5b44 93ba 11d4 9338 8255 143a
00000060: 7e57 c03c 5979 f93a c2ea 42bb d234 103b
00000070: db90 113c d3d4 cabb c2ea 42bb d234 103b
00000080: 692d c13c 3630 043b 0de2 a73a f884 72b6
00000090: b58c fc3b 7b72 d4bb 0de2 a73a f884 72b6
000000a0: 1368 b93c fde3 843a 3825 a337 a3c9 31bc
000000b0: 2a68 8f3b e769 c4bb 3825 a337 a3c9 31bc
000000c0: f6db b2bb b771 0a3c c9ca a73b fce1 b437
000000d0: b13e c23c 4e44 34bd c9ca a73b fce1 b437
000000e0: f1f4 853b 088a fa3b 5484 0abb eb10 acbb
000000f0: 9c6b 723d 9e9a 9bbd 5484 0abb eb10 acbb
00000100: c754 243c aeac 123c 82af 55ba e187 6639
00000110: 6605 af3c 75c1 03bd 82af 55ba e187 6639
00000120: 55be 003b aa6a c136 40db b1b9 b138 83b9
00000130: 5e65 4639 242e 8eb9 40db b1b9 b138 83b9
00000140: fdc3 e33a e992 1037 8032 0bb9 cacf 3938
00000150: 2dc9 4a39 5c31 7eb9 8032 0bb9 cacf 3938
00000160: 5add de3a 07cd 7137 913e c337 9d48 0eb8
00000170: 604f 4f39 dc5a 82b9 913e c337 9d48 0eb8
00000180: 49da d43b 9742 1639 fe4f e738 9d62 9eb9
00000190: de6d 523a 5d06 d9ba fe4f e738 9d62 9eb9
000001a0: 6159 b93b d276 e138 76c9 14ba f641 ba39
000001b0: 7269 303a e4ca beba 76c9 14ba f641 ba39
000001c0: cacf d73b 631d 9b38 e19a 9939 f144 8fb8
000001d0: 6863 4b3a e355 abba e19a 9939 f144 8fb8
000001e0: 0520 0f3d 967b 813c 4bc5 41bc ea1f a9bb
000001f0: c196 4c3d 0ea2 cdbc 4bc5 41bc ea1f a9bb
00000200: 1907 283d 9e3c 703c e790 9438 0a1c d93a
00000210: b8e6 4e3d bc7d debc e790 9438 0a1c d93a
00000220: 7826 4b3d cacd 493c 6ac1 9fba 84ba 67bc
00000230: afe0 443d b9a5 f4bc 6ac1 9fba 84ba 67bc
00000240: 1be1 d13c 0a85 e23a 47c9 d33a 55c3 aeba
00000250: 6168 123c 6013 67bc 47c9 d33a 55c3 aeba
00000260: ab03 dd3c c8fc 453a 205a eebb 93a1 aeba
00000270: ff50 eb3b 08c7 79bc 205a eebb 93a1 aeba
00000280: 2b01 e73c 9b30 3fba 6846 9a3a de00 4dbb
00000290: 3578 923b fdf0 83bc 6846 9a3a de00 4dbb
000002a0: a203 5e3c ecd9 7a39 e5f3 23bb e766 da3a
000002b0: 7a7a 313b 853e c7bb e5f3 23bb e766 da3a
000002c0: 6bd2 523c 5760 dd38 8c31 d8b9 e535 95b9
000002d0: 2377 393b 4dfb ccbb 8c31 d8b9 e535 95b9
000002e0: 1cb2 643c fd20 37b8 18d1 8fba 69e9 13bb
000002f0: abb3 443b eb04 c1bb 18d1 8fba 69e9 13bb
00000300: d604 563d b86e 2fbc 1f92 383b 2c5f c4bc
00000310: b13c 4b3c f955 44bc 1f92 383b 2c5f c4bc
00000320: f875 283d ed3f 7dbc 8a3c 1d3b 1f8b f0bc
00000330: 59bf b23b 6f3e 86bc 8a3c 1d3b 1f8b f0bc
00000340: 6ced c13c b827 64bc c8e8 2f3c 9eac df3c
00000350: 9f7b 253b 25c1 b1bc c8e8 2f3c 9eac df3c
00000360: ec2e c93c d21b 4038 2ddf 23bb f2cb 67ba
00000370: f867 f43b 9457 abba 2ddf 23bb f2cb 67ba
00000380: 0395 c93c 6c5b 4f38 86e9 2bbb 527a c5ba
00000390: a7e4 d33b a074 03bb 86e9 2bbb 527a c5ba
000003a0: e121 ce3c f46b 7438 2d3e 0fba 9156 5539
000003b0: 5639 953b 5122 04bb 2d3e 0fba 9156 5539
000003c0: 32b8 313d 2b12 e33a cf91 ecbb 2896 aebc
000003d0: 9b2a 343d cd3b 62bd cf91 ecbb 2896 aebc
000003e0: 75bd 5f3d fe79 51bb 5676 b83b 711a 21bb
000003f0: 0437 193d 6aed 59bd 5676 b83b 711a 21bb
0.0023890252 0.0005724277 -0.0003367209 0.00037763192 0.00038969735 -0.0012214226 -0.0003367209 0.00037763192
0.0032271207 0.00048512407 -0.00057438086 -0.0004731779 0.00056104426 -0.0012089211 -0.00057438086 -0.0004731779
0.0026625888 0.00055656006 7.049007e-05 0.00056584936 0.00073022186 -0.0011235581 7.049007e-05 0.00056584936
0.02347922 0.0019033357 -0.0029741977 0.002200414 0.008884634 -0.0061899214 -0.0029741977 0.002200414
0.023581224 0.0020170338 0.0012808457 -3.6138208e-06 0.0077072033 -0.0064833737 0.0012808457 -3.6138208e-06
0.022632634 0.0010138747 1.9448446e-05 -0.010851297 0.004376431 -0.00599407 1.9448446e-05 -0.010851297
-0.0054583503 0.008449963 0.0051206094 2.1562904e-05 0.023711534 -0.044010453 0.0051206094 2.1562904e-05
0.004088037 0.007645849 -0.0021136003 -0.00525104 0.059184656 -0.0759785 -0.0021136003 -0.00525104
0.010029978 0.008952303 -0.0008151458 0.00021985128 0.021364879 -0.032166917 -0.0008151458 0.00021985128
0.0019644697 5.7642656e-06 -0.00033923425 -0.00025028505 0.00018920514 -0.00027118728 -0.00033923425 -0.00025028505
0.0017377135 8.617274e-06 -0.00013274886 4.4300956e-05 0.00019339165 -0.00024241715 -0.00013274886 4.4300956e-05
0.0017003224 1.4412456e-05 2.3274946e-05 -3.3923065e-05 0.00019770628 -0.00024863228 2.3274946e-05 -3.3923065e-05
0.006495748 0.00014329921 0.00011029838 -0.0003020958 0.0008027236 -0.0016557683 0.00011029838 -0.0003020958
0.0056564067 0.00010750968 -0.0005675772 0.0003552583 0.000672958 -0.0014556316 -0.0005675772 0.0003552583
0.0065860497 7.39645e-05 0.00029297828 -6.831613e-05 0.0007758648 -0.0013071861 0.00029297828 -6.831613e-05
0.034942646 0.015806 -0.011826823 -0.005161275 0.049948458 -0.025101688 -0.011826823 -0.005161275
0.041022394 0.01466289 7.08418e-05 0.0016564142 0.050513 -0.027159564 7.08418e-05 0.0016564142
0.049597234 0.01231713 -0.0012188379 -0.01414359 0.048065837 -0.029864179 -0.0012188379 -0.01414359
0.025620034 0.001728208 0.0016158008 -0.001333336 0.008936019 -0.01410374 0.0016158008 -0.001333336
0.026979288 0.0007552621 -0.0072739273 -0.0013323299 0.0071812863 -0.015245207 -0.0072739273 -0.0013323299
0.0281988 -0.00072933146 0.001177025 -0.0031281034 0.004469896 -0.016106123 0.001177025 -0.0031281034
0.013550671 0.0002392304 -0.0025017199 0.0016662747 0.0027081058 -0.006080451 -0.0025017199 0.0016662747
0.01286755 0.00010556046 -0.00041235646 -0.0002845965 0.002829977 -0.0062555433 -0.00041235646 -0.0002845965
0.01395848 -4.3661323e-05 -0.0010972349 -0.0022569543 0.0030014317 -0.005890479 -0.0010972349 -0.0022569543
0.052250706 -0.01070755 0.0028163267 -0.023971163 0.012404607 -0.011983388 0.0028163267 -0.023971163
0.04112813 -0.015457136 0.0023992383 -0.029363213 0.0054549393 -0.016387193 0.0023992383 -0.029363213
0.023672782 -0.013925485 0.010736652 0.02730399 0.0025250686 -0.021698544 0.010736652 0.02730399
0.024558507 4.5802277e-05 -0.002500485 -0.0008842341 0.007458683 -0.0013072365 -0.002500485 -0.0008842341
0.024607187 4.943779e-05 -0.002623172 -0.0015066362 0.0064664665 -0.0020058528 -0.002623172 -0.0015066362
0.02516264 5.8274672e-05 -0.0005464282 0.00020345511 0.004553954 -0.0020162056 -0.0005464282 0.00020345511
0.043388553 0.001732414 -0.00721953 -0.021311834 0.043985944 -0.05523281 -0.00721953 -0.021311834
0.05462404 -0.0031963582 0.005629341 -0.002458241 0.037405983 -0.05320493 0.005629341 -0.002458241

fcs1.bias f4 [128]
00000000: 1679 3bba 4727 a7bb 4124 cbba 7c75 9db7
00000010: a7b0 e0b8 86aa d3bc ca18 a8bb 4cd4 88b9
00000020: c983 453b 1eba d2b8 8c1f 1abd f534 76b9
00000030: 96bd 33b9 f8fd efbc 3caa 32bb 8468 143c
00000040: 7f6c 35ba 5b83 8d3e dc4a 10b7 efa2 94bb
00000050: e8ab 7dba a29f e4b6 8920 19bb e7e1 c2ba
00000060: 36c7 c8b8 4693 83b9 ee2d 5bb9 71a5 05bc
00000070: 559a 39bc b66f 86b8 9766 6abb 23ee 8cbb
00000080: b0ee eab9 9c68 343a 9c30 e53a 2268 31b7
00000090: 4440 5db6 956c 65bc a72e 0fbc f1bd 7538
000000a0: ffbb f139 bdc4 a0ba cf47 183b 39a0 c4bb
000000b0: 9d95 51ba 110e 13bb 9182 b7bc 102b c83b
000000c0: d3fe da39 9833 ccbb cf3a 27ba c184 48b9
000000d0: 6035 4cbb 654b 2838 182d ffb8 56e3 a2ba
000000e0: 96da e5ba f22d 6cbd 4633 4ab9 6e7e c4b9
000000f0: 0013 07bd 2f3b ddb7 5e0b 32bb 5909 40b9
00000100: 2edf c3bb b5dd 34bb 4c24 00bd 73e8 5837
00000110: ce72 09bc 08d7 04bb 274b 50ba 510a 67bb
00000120: 41ae 99bb 2b9c cf3b a219 e5bb 4ad3 a2b9
00000130: 28bc 53ba 6994 95ba 3c27 81bb 3bd9 8438
00000140: aae4 5abc 3fd5 91bb 9605 e4b6 9503 a3b8
00000150: 986d 8abc c7fe 13ba ff26 2f39 a2e5 e939
00000160: 7984 7eb7 32a7 14bd 8dde 5cbc f28e 40bc
00000170: 58f2 b3b9 3b59 6ebc a255 58b7 5348 beba
00000180: 1eda dbba 46c7 73bb 1ca7 96bb 4948 e6bb
00000190: 9412 edba 116d b1bc 4502 74b9 e8ee d5bb
000001a0: 0fa3 9ab4 dd08 9135 5f17 8538 409d c3ba
000001b0: 9b59 cdb9 340b e037 111f acbb 70db ddb8
000001c0: 6d90 92b8 d921 94b8 6450 ceba d9fd fc33
000001d0: b585 d7b9 3164 d1bc 5389 92bc bd48 803a
000001e0: 66b1 42b7 a4b6 2bbb a107 14ba 8360 50bc
000001f0: ef01 5a3e 5df3 01bd bd3d d3ba 0e89 a4b9
-0.0007151527 -0.005101118 -0.0015498475 -1.8770566e-05 -0.000107140564 -0.025838148 -0.005129908 -0.00026098115
0.0030138365 -0.00010048247 -0.03762774 -0.00023480116 -0.00017141397 -0.029295906 -0.0027262112 0.009058122
-0.0006920769 0.2763928 -8.600498e-06 -0.0045360248 -0.00096768 -6.813513e-06 -0.002336534 -0.001486835
-9.573849e-05 -0.00025095994 -0.00020902578 -0.00815712 -0.0113282995 -6.410426e-05 -0.0035766715 -0.004300849
-0.00044809794 0.0006882043 0.00174858 -1.0574267e-05 -3.2968974e-06 -0.014002939 -0.00873915 5.858945e-05
0.0004610717 -0.0012265664 0.002323616 -0.0060005453 -0.00079950114 -0.0022438804 -0.022401126 0.006108649
0.0004177006 -0.0062317364 -0.00063793076 -0.00019122941 -0.0031159744 4.0124538e-05 -0.00012167747 -0.001242737
-0.0017536457 -0.057661004 -0.00019283322 -0.0003747823 -0.032977104 -2.6372812e-05 -0.002716742 -0.00018314029
-0.005977533 -0.0027597968 -0.031284615 1.2928725e-05 -0.008389188 -0.002026977 -0.0007945769 -0.0035253952
-0.004689962 0.0063357553 -0.006991581 -0.0003105647 -0.00080770487 -0.0011412028 -0.0039414447 6.334713e-05
-0.013360182 -0.0044504697 -6.79558e-06 -7.773113e-05 -0.016897961 -0.000564557 0.00016703828 0.00044612313
-1.51704235e-05 -0.036292262 -0.013480795 -0.011752831 -0.000343221 -0.014547641 -1.2894541e-05 -0.0014517404
-0.0016773378 -0.0037197634 -0.0045975577 -0.00702766 -0.0018087202 -0.021658452 -0.00023270499 -0.006528724
-2.8803376e-07 1.0805921e-06 6.3462874e-05 -0.0014924183 -0.00039167408 2.6708098e-05 -0.005252727 -0.000105789746
-6.988724e-05 -7.0634946e-05 -0.0015740511 1.1780839e-07 -0.00041107615 -0.02556047 -0.017887747 0.0009787303
-1.1604605e-05 -0.0026201392 -0.0005646889 -0.012718323 0.212898 -0.03172623 -0.0016116422 -0.0003138263

fc2.weight f4 [64, 130]
00000000: 4023 8239 bb4a 883b 8e16 f7bb 6c8a 16b9
00000010: d04e 39ba 5dda c2bc d395 9cb9 765b 27bc
00000020: 8e5f 983c e26a 71bb a37c c03c 07ca 67ba
00000030: 121b 48bb 8528 2d3b 43c3 20ba b523 18bd
00000040: 0d79 6bbb 3025 e5bd 3795 3cb9 e1d0 463c
00000050: 1234 8d3b 61e0 53b9 64a6 a0ba 5568 843b
00000060: eb96 94b9 0773 23bb 8cab 483b 5124 adbb
00000070: 1b22 4dbc a05c a0b9 7db7 2f3e ca60 973b
00000080: c736 cb39 77b4 1bbb 2490 dcbd e9d6 2d3b
00000090: 2eb7 1635 f3f7 513c 94c9 273b f44a 353b
000000a0: 593a d2bc e224 a03a 776f 1ebc 54a1 92bc
000000b0: 3a25 23bc bee1 683a 9f76 10ba f85c 333e
000000c0: 0b0e 90ba e464 e7bb e6a0 c3bb 7a84 f039
000000d0: 8e7b ae3b e473 d1ba 4d5d 6bbb 16ed b9bb
000000e0: f6b2 4c3c bf9b 083d e53c a039 b870 39bb
000000f0: 3978 803d a8a3 ba3a 47be d23b b71f 433b
00000100: 43a8 3d3c acfa 4bbc 77b2 e33b ef55 60bb
00000110: 85d7 a23c 9180 423b 3c32 68bb 0efe c7ba
00000120: 07a3 9bbc 538d e33a ceb7 96bb ed00 d8bb
00000130: c2fb 9b3b 6d38 1abc 3ffc f8ba f9b9 d238
00000140: 9557 bf3c 1df2 70bb 5198 08ba c59d 61b7
00000150: 9757 98bd 5889 04bb 7bac 99bb a71a 4bbb
00000160: 9bef 44ba ad29 d239 c380 fc3b 01c2 09bd
00000170: 6668 b838 20c1 99bb 7d0f 84ba 81c9 cb3b
00000180: b60f 86bc 8c42 deb9 ee79 4bbc 1cbe 5ebb
00000190: b21d a9ba 172c 843c deca 46b9 deb9 433c
000001a0: ecb3 c339 4ad4 b0ba 4c51 c2bb 9846 113c
000001b0: 51e1 1a3b 1417 b0b9 da4c 983c f573 d239
000001c0: 3949 37ba fce9 90bb 3ddd 17bb 7558 2fb9
000001d0: c215 5a3b 55f7 923b 5750 833c 7619 16bc
000001e0: 96b8 11ba 27db b43b e489 63ba a598 9fba
000001f0: 71fb debd da5f a9bb 8cc2 673c d830 04bc
00000200: 00d3 4a3c 3d22 29bb dd9b 2f00 6f35 0200
00000210: d855 3a80 6b24 0d80 107a 4e00 cda6 0e00
00000220: 9b58 0280 2471 4d80 e794 3400 eac6 0d80
00000230: 0909 1e00 f114 2700 01ce 3f00 32b5 2f00
00000240: 98f3 2800 5fd4 0300 882e 2c80 afd5 e6ab
00000250: a751 4e80 6e2c 0d80 a9cb 5000 718a 1f80
00000260: ea2e 4980 9226 4900 715c 4f80 0f53 5180
00000270: 2b3f 2600 1f7e 0000 1708 1200 f3ea 2980
00000280: e230 4e80 adb0 2380 fa12 2c80 3cc3 2380
00000290: 649c a686 b67a 3800 5acb 3980 ca41 4a80
000002a0: d9ef 5280 0cf2 2b00 b4a7 0b00 02c7 2f00
000002b0: ed95 4e80 7449 2180 67bd 3e80 8b85 0400
000002c0: 72eb 4f80 0c03 4900 a79b 2f00 2e8a 3500
000002d0: 19ff 4d00 74e5 3680 d724 1780 74d8 0100
000002e0: 2c85 3100 d671 1e00 03a6 5180 7235 5c81
000002f0: af1e 3e00 b869 4a00 7990 5100 5922 0700
00000300: 47a9 0d80 6504 2f80 c359 4900 c5c9 4000
00000310: a237 3700 c4a2 1a00 7fd4 4980 1bf2 2800
00000320: d1c6 1700 138b 4000 7602 4a00 7263 4200
00000330: 441c 4a00 4b01 3080 5594 0c80 bab6 5000
00000340: 2a29 1d80 7d6b 4680 4323 1580 a758 2180
00000350: fa3d 3200 1fb8 5080 3540 0500 fcdf 1380
00000360: 18b0 0280 fcf2 4e00 8220 3100 9aa8 0880
00000370: 5609 1c00 a906 4d00 4326 2300 81cc 4380
00000380: 105e 3a80 f8fe 2f80 2c38 0000 823a 5000
00000390: 60be 0000 7d14 4e80 c20e 4d80 a2c3 0180
000003a0: a319 2600 92ad 3600 db8b 3d00 adaf 2d80
000003b0: c5f9 3980 90a2 0580 7a3e 3780 84e2 3480
000003c0: a7f7 1e80 5ba5 0e80 5540 4380 fc78 1300
000003d0: 1a41 4380 2030 4900 8dbc 1c80 2ece 2080
000003e0: 6f6e 2400 bdcc 4400 fdcd 1500 e7ee 1900
000003f0: 50cf 2b00 d809 2c80 c8fd 3300 7c81 4880
0.00024821796 0.004159299 -0.0075405305 -0.00014356681 -0.0007068934 -0.023785764 -0.00029866266 -0.010214677
0.018600252 -0.0036837389 0.023496931 -0.0008842055 -0.0030533713 0.0026421857 -0.0006132612 -0.037143428
-0.0035930306 -0.111887336 -0.00017984664 0.012134762 0.004309186 -0.00020206116 -0.001225662 0.0040407577
-0.00028341202 -0.0024940388 0.0030619828 -0.0052838703 -0.012520338 -0.0003058659 0.17159839 0.0046196925
0.0003875999 -0.0023758688 -0.1076968 0.0026525802 5.6145916e-07 0.012815463 0.0025602328 0.0027663084
-0.025662588 0.0012218023 -0.00967013 -0.017899193 -0.009957606 0.0008883736 -0.000551084 0.17515934
-0.0010990513 -0.0070615876 -0.0059701083 0.0004587507 0.0053247875 -0.0015979973 -0.0035913766 -0.005674015
0.0124938395 0.033351656 0.00030562948 -0.0028295945 0.06272931 0.0014239447 0.0064313742 0.0029773542
0.011575761 -0.012449902 0.006948765 -0.0034230908 0.019878158 0.0029678682 -0.0035430333 -0.0015258209
-0.018998636 0.0017360843 -0.004599548 -0.0065919072 0.0047602365 -0.009412867 -0.0018996074 0.000100482204
0.023357192 -0.0036765405 -0.0005210685 -1.3447779e-05 -0.074385814 -0.0020223465 -0.0046897507 -0.0030991228
-0.00075125106 0.00040085372 0.0077057793 -0.033632282 8.7932494e-05 -0.0046922117 -0.0010075417 0.0062190895
-0.016364913 -0.0004239272 -0.012419207 -0.0033987826 -0.0012902527 0.016134305 -0.00018958325 0.01194617
0.0003732735 -0.0013491001 -0.0059301015 0.0088669285 0.0023632834 -0.0003358653 0.018591333 0.00040140716
-0.0006991807 -0.0044224244 -0.002317264 -0.00016722253 0.0033277129 0.0044850507 0.01602952 -0.009161344
-0.00055588165 0.005519289 -0.000867991 -0.0012176229 -0.108878024 -0.005168897 0.014145505 -0.008068286
0.012379408 -0.002580776 4.372182e-39 2.0284e-40 -5.357254e-39 -1.206926e-39 7.206956e-39 1.345534e-39
-2.15457e-40 -7.11192e-39 4.828862e-39 -1.265218e-39 2.758306e-39 3.589097e-39 5.859537e-39 4.381269e-39
3.760805e-39 3.51691e-40 -4.057454e-39 -1.6401792e-12 -7.19246e-39 -1.2098e-39 7.419899e-39 -2.896564e-39
-6.720821e-39 6.717828e-39 -7.288166e-39 -7.468471e-39 3.512409e-39 4.5244e-41 1.655941e-39 -3.849539e-39
-7.180705e-39 -3.277622e-39 -4.04757e-39 -3.284279e-39 -6.2672055e-35 5.186808e-39 -5.307572e-39 -6.819427e-39
-7.616552e-39 4.035756e-39 1.070351e-39 4.387659e-39 -7.216952e-39 -3.056921e-39 -5.761746e-39 4.15248e-40
-7.339466e-39 6.705084e-39 4.372106e-39 4.916851e-39 7.162845e-39 -5.041429e-39 -2.125432e-39 1.69484e-40
4.547712e-39 2.795902e-39 -7.498229e-39 -4.0445963e-38 5.704808e-39 6.833751e-39 7.490502e-39 6.5517e-40
-1.254587e-39 -4.317845e-39 6.736192e-39 5.949853e-39 5.07091e-39 2.446112e-39 -6.78022e-39 3.760271e-39
2.183538e-39 5.927362e-39 6.79671e-39 6.096817e-39 6.805967e-39 -4.408568e-39 -1.155237e-39 7.41239e-39
-2.677996e-39 -6.467044e-39 -1.941195e-39 -3.062374e-39 4.614008e-39 -7.41289e-39 4.8221e-40 -1.825225e-39
-2.46842e-40 7.250335e-39 4.511601e-39 -7.95167e-40 2.574743e-39 7.073722e-39 3.227968e-39 -6.22634e-39
-5.360202e-39 -4.407734e-39 2.015e-41 7.367828e-39 6.8294e-41 -7.170519e-39 -7.076627e-39 -1.62015e-40
3.498946e-39 5.021382e-39 5.652136e-39 -4.195618e-39 -5.324224e-39 -5.17494e-40 -5.073365e-39 -4.856704e-39
-2.843906e-39 -1.345015e-39 -6.176056e-39 1.788275e-39 -6.176332e-39 6.721255e-39 -2.639033e-39 -3.012699e-39
3.345694e-39 6.31826e-39 2.00244e-39 2.38159e-39 4.023296e-39 -4.044293e-39 4.77465e-39 -6.658606e-39

fc2.bias f4 [64]
00000000: eb91 edbb 91ef 2500 a355 0bbc 2867 95bc
00000010: f3f8 dabc e5a6 293d 5a22 889e 8e62 16b9
00000020: bcc4 8bb8 1b57 73a7 0f41 bebd b598 fea0
00000030: 4e4f 8fae ee08 85a6 2335 26b0 ff81 c9a3
00000040: 10a6 d1b8 d168 863e 803d 4abd 6a4b ecba
00000050: e3bf b0bb 3deb 93bb b34c 6b81 c284 45b6
00000060: 740e 01b2 85fb 6cba 8543 d8bc 9d74 05af
00000070: 5bd6 e3b8 b848 523e 29e6 be3d 3a73 d23c
00000080: feea 24b5 6b53 acbb 983f 61ac 5432 b1b7
00000090: 610d 1eb8 e91e 88a0 6e79 49b1 d744 d03c
000000a0: b58e 653e 78cd 72bc 18c3 ebbd 9b0d 123e
000000b0: d05a 86bb 8aac 90a0 99a4 2824 cd21 12bb
000000c0: e901 2b96 ea42 55a1 d830 84bd 8dc7 f7bb
000000d0: f6a4 9281 9415 5bb1 7345 3bb8 cedc c9b8
000000e0: 0ccb 9da5 78ee aabd 199d 15ba 580e 78ac
000000f0: bdb6 113a 9ca0 20b8 9c31 353e 4563 63be
-0.007250061 3.483854e-39 -0.008504304 -0.018237665 -0.026730036 0.04141893 -1.4413768e-20 -0.00014341829
-6.664681e-05 -3.3770244e-15 -0.09289753 -4.3130327e-19 -6.5169745e-11 -9.231149e-16 -6.046596e-10 -2.1847519e-17
-9.996828e-05 0.26251844 -0.049375057 -0.0018027846 -0.0053939684 -0.0045141266 -4.3217712e-38 -2.9432563e-06
-7.5120745e-09 -0.0009040165 -0.026399383 -1.2137709e-10 -0.0001086413 0.20535553 0.09321243 0.02568971
-6.143672e-07 -0.0052589676 -3.2009725e-12 -2.112348e-05 -3.7682596e-05 -2.305975e-19 -2.9318374e-09 0.02542345
0.2241772 -0.014819495 -0.115118206 0.14263003 -0.004100181 -2.4508726e-19 3.6568613e-17 -0.002229798
-1.3813873e-25 -7.2255767e-19 -0.06454629 -0.00756163 -5.3868637e-38 -3.188096e-09 -4.4648954e-05 -9.625555e-05
-2.7372748e-16 -0.083462656 -0.00057073083 -3.5250882e-12 0.0005558541 -3.829655e-05 0.17694706 -0.22205837

fc3.weight f4 [1, 64]
00000000: 75d2 b9bd f816 54af c6f6 88bc 21ec 1cbc
00000010: 9a48 dc3c ee4b 7d3d 5a5e f01d eaf0 0bbc
00000020: 1927 f9b7 6cdc ffb3 2ea6 9bbd 37a2 e4b7
00000030: 2913 a838 7079 2837 c132 f539 99a9 1b39
00000040: 52c0 6a3b 2e70 043e 2ef3 7bbd ec64 2eb8
00000050: 6908 a83b a63d 4b3c 4f35 0da9 ef30 a438
00000060: 654c ae3b c6cd c03b 691a 033c 6695 6db0
00000070: 60da 33bc dadc 1abe d87b 473d b71d 023d
00000080: c97a 49bc 7b29 d6ba b257 db38 d121 dab9
00000090: 1715 9e39 9caa ce37 34f9 d7b7 7263 febd
000000a0: 462b 763e 9e83 803c e3df dbbc d8f5 913d
000000b0: 6cd1 d63b d872 0c30 6df5 8e39 a7fe fb3b
000000c0: 00f1 0e95 6f23 9ab4 2c2c 4a3d 409c d33a
000000d0: e204 a932 1707 7337 67a5 08bb 1b7a 55ba
000000e0: 1269 15bb 726d acbd 3cea 1a3a 28e6 153a
000000f0: 38b7 1bbd 8e23 1abb e09f d63c 6806 f2bd
-0.090733446 -1.9289448e-10 -0.016719233 -0.009577782 0.026890088 0.06183999 6.362503e-21 -0.008541325
-2.970132e-05 -1.1914457e-07 -0.07600056 -2.7255255e-05 8.014433e-05 1.0041855e-05 0.00046767856 0.00014845132
0.0035820198 0.12933418 -0.06151121 -4.1578824e-05 0.0051279557 0.012404835 -3.1354527e-14 7.829244e-05
0.0053191655 0.005883905 0.008001902 -8.6432406e-10 -0.010977358 -0.1512331 0.04870209 0.03176662
-0.012297341 -0.0016339266 0.00010459068 -0.00041605395 0.00030151822 2.463656e-05 -2.5746042e-05 -0.124213114
0.24039945 0.01568776 -0.026840156 0.07126969 0.0065557268 5.1094906e-10 0.00027267207 0.007690269
-2.8866787e-26 -2.8710517e-07 0.04935853 0.0016144589 1.967641e-08 1.4485579e-05 -0.002085054 -0.00081435003
-0.0022798222 -0.084193125 0.00059095374 0.0005718195 -0.038016528 -0.0023519727 0.026199281 -0.11817628

fc1.weight f4 [128, 24]
00000000: c688 003c 1cc4 123d d2c2 a7bc f0b7 0cbf
00000010: 33e5 0a3f b617 39bf 0a52 92bc a6f8 0fbf
00000020: 04d3 4e3d db66 98bc 4751 bf3c 209f 18be
00000030: 92ae 553f 29db 20bf 9954 82bc 9d68 45be
00000040: f5d0 bc3e ddb0 233b 95c0 8fbd bd6c 87be
00000050: 294d 7f3f 1810 40bf 905a 9cbc a004 21be
00000060: 3fec 593e 71b2 a3bd 7b4a 50bd 4062 053f
00000070: c1e0 80bd b880 a4be c7d8 fcbd 04cc 1a3f
00000080: fdc5 553e 5e7f 283e 6d9f 2a3d ee92 1a3f
00000090: f252 e33e a659 a6be 99e2 3cbd 755e 183f
000000a0: b1d6 a63e 6a6e 053f cbe3 123d f64f 0a3f
000000b0: 4beb 543f 3942 babe 3bbf 6d3c 8463 e43e
000000c0: f6db 0e3d 0702 6c3f ad27 8bbc cc74 353e
000000d0: 7d25 013e 7158 ecbe 30aa 3dbc b886 6a3e
000000e0: a6ef a6bd cfba 4c3f ab24 24be ae49 8a3d
000000f0: a6e0 7fbd d264 30bf 3949 0bbe 7070 563d
00000100: fd5b 0e3e bd8d 6f3f 0f69 50be 7643 57be
00000110: 6e4b 223e a035 a7bf ac1b 07be 8747 4fbe
00000120: 48c2 d73e f268 523e ac4b 3cbe 23d3 a5bd
00000130: 62cf d73c c123 43be c13e ecbc 6e0e 89bd
00000140: 89ee ae3e b60b 2abd a300 e3bd a5ee a5be
00000150: 5fa2 5abd 263a 25be fd8b c1bd f11d dfbe
00000160: 67b4 b43e 016c e2bd 2881 2e3e 612f 9e3e
00000170: 3950 46be b158 05be 6350 493e b68e 8f3e
00000180: a0df 4b3f f05e 8abe 8f70 873d b399 643e
00000190: 9022 c83e 40e1 f4be 700e 0a3c a96b a63e
000001a0: 2b58 293f 8dc2 81be bd8e c73d b889 0f3f
000001b0: de14 f63e 5bc0 f9be 0caf 703e b244 083f
000001c0: a73c f03e 812f e53c af0d e0bd b29c 733e
000001d0: 05fa 023f 73fd 02bf e546 5cbe fbd5 843e
000001e0: c59c 343f 1276 a03d 5e27 31be 153e 853d
000001f0: 05b2 9bbe 2f80 a3be f10a 4bbd 6277 103c
00000200: 810b 463f 2d6e aebc 4139 2cbd ff06 23be
00000210: e124 9cbe d222 a9be 2ea9 263d a56b 68be
00000220: 63a7 603f faff 8bbd 2408 13bd 7645 2cbf
00000230: 2c6c 20be 4354 00bf 4aa9 50bd 1d27 27bf
00000240: 4c90 313f e87d 243f 2a4f 2c3e cc48 0e3e
00000250: 6fdd 79be 627f b7be 12e3 f13d 5fb9 95bc
00000260: 0e23 153f d34a e93e d1d8 c2bb ddf2 05bf
00000270: 1b5b fcbe 4f1e 7ebe 6e5d 1abd b151 ccbe
00000280: 6bab 3e3f 4087 873e b026 00bd 4c07 10bf
00000290: 6c4e 2dbf 9062 d6be a296 883d ccd9 27bf
000002a0: 378f 1c3e 3ab0 513f 082c b83d bf00 a13e
000002b0: c673 33bf 5510 32be 1624 803c b8d8 873e
000002c0: b515 ef3d 812c 473f 7131 c0bd ca99 1e3e
000002d0: 3703 ee3e 47fb a5bd 7503 a0bd 8b55 f33c
000002e0: 5717 a53b 514e 333f 716f b0bd 487d acbe
000002f0: 12b3 fe3f 4d20 33be 75d4 71be ee7f a8be
00000300: f6fc 8a3e c208 0b3f 5a58 ff37 e442 00be
00000310: e1cc 04be 4263 77bf ff50 2abe 03cc 93bd
00000320: 49fe 673e a3cf 0d3f 5516 8cbd 661d 183d
00000330: 00b0 44be 124a 85bf d0e0 2cbe dea6 8e3d
00000340: 70a0 e03e a1c4 2a3f 296d cd3d 79af e93e
00000350: 5dd9 6dbe d223 a2bf 33b1 a73d 325a b93e
00000360: 20d8 913c 7f2a fbbd b3ce 3e3b 6ac2 4d3d
00000370: 0d8c 413f bda1 80bf 332a 483d 17c0 bbbd
00000380: 793e a5bd eae5 0abe a62d 843d 13d4 36be
00000390: 26d8 013f b637 78bf 4ce5 923d eaf5 87be
000003a0: af09 9c3d 799d 343c 4ce4 6d3d bddb 90bd
000003b0: c7a5 143f 6207 8cbf 7cc8 543e 489e 1ebc
000003c0: 5271 b83e 06ab ed3d 1196 c73c 21a0 9d3d
000003d0: 4cc8 ac3d 61b4 0abf 334a 28bd c7d0 c73d
000003e0: 1099 f43e 0489 663e 4955 e2bd 2096 2d3d
000003f0: ec2d 543f bd00 e2be 6b59 efbd 1815 4fbd
0.007845109 0.035831556 -0.02047864 -0.54968166 0.5425598 -0.72301805 -0.017861385 -0.5623878
0.05049421 -0.018603733 0.023354186 -0.14904451 0.834695 -0.6283441 -0.01590948 -0.19278188
0.36878172 0.0024977245 -0.07019154 -0.26450148 0.9972711 -0.7502456 -0.019086152 -0.1572442
0.21281527 -0.07993019 -0.05085228 0.5210304 -0.062928684 -0.32129455 -0.123460345 0.60467553
0.20876308 0.16454837 0.041655947 0.60380447 0.4439922 -0.3249027 -0.046114538 0.5951913
0.32585672 0.52121603 0.03586177 0.5402826 0.8317153 -0.3637865 0.014510925 0.44607174
0.03487774 0.92190593 -0.016986692 0.17720336 0.12611957 -0.46161225 -0.01157622 0.22902954
-0.08151178 0.7997255 -0.16029613 0.067523345 -0.0624701 -0.6890384 -0.13602151 0.052353323
0.13902278 0.9357565 -0.20352577 -0.21021828 0.15849087 -1.306324 -0.1319415 -0.2024213
0.42140412 0.20547846 -0.18388242 -0.08096912 0.026344005 -0.19056608 -0.028838517 -0.06692205
0.34166363 -0.041515075 -0.11084106 -0.32408634 -0.053377505 -0.16135463 -0.09450529 -0.4357753
0.35293886 -0.11055756 0.17041457 0.30895522 -0.1936654 -0.13022114 0.19659571 0.28038567
0.796381 -0.27025557 0.06613266 0.22324257 0.3908887 -0.47828102 0.008426294 0.32504013
0.6615016 -0.25343743 0.09744022 0.5606952 0.48062795 -0.48779568 0.23504275 0.5322982
0.46921274 0.027976753 -0.1094011 0.23790243 0.5116275 -0.5116798 -0.21511419 0.25944504
0.7055171 0.0783502 -0.17300174 0.06505982 -0.30409256 -0.31933734 -0.04957098 0.008817526
0.77361304 -0.02129277 -0.04204679 -0.15920638 -0.30496886 -0.33034378 0.040688686 -0.22697313
0.8775541 -0.06835933 -0.035896435 -0.6729349 -0.15666264 -0.50128573 -0.050942697 -0.6529406
0.69360805 0.6425462 0.16827074 0.13894957 -0.24400876 -0.35839373 0.11810888 -0.018276868
0.58256614 0.455649 -0.0059462567 -0.52323705 -0.49288258 -0.2481625 -0.037686758 -0.39906076
0.74480313 0.26470375 -0.031286895 -0.56261134 -0.6769779 -0.41872072 0.06669356 -0.65566707
0.15289007 0.81909525 0.08992773 0.31445882 -0.7009853 -0.17389043 0.015642207 0.2653253
0.11674062 0.7780228 -0.0938443 0.15488353 0.46486828 -0.08104568 -0.078131594 0.029703876
0.0050381827 0.70041376 -0.08615006 -0.33689332 1.9898398 -0.1749279 -0.23616202 -0.32910103
0.2714612 0.5431024 3.043951e-05 -0.12525517 -0.1296878 -0.9663583 -0.1663246 -0.072166465
0.22655596 0.55394953 -0.06840197 0.03713741 -0.19207764 -1.041323 -0.16882634 0.06965421
0.43872404 0.6670628 0.10030586 0.45641688 -0.23227449 -1.2667181 0.08188095 0.36201626
0.017803252 -0.12263965 0.0029114902 0.050234236 0.75604326 -1.0049359 0.04886837 -0.091674976
-0.08068556 -0.13564268 0.06454019 -0.17854337 0.5072044 -0.9696001 0.07172641 -0.26554805
0.076190345 0.0110238725 0.05807905 -0.07073162 0.58065456 -1.0939753 0.20779604 -0.009681292
0.36023957 0.11604886 0.02436355 0.07696558 0.08436641 -0.54181486 -0.041086387 0.09756618
0.47773027 0.22513205 -0.11051423 0.0423795 0.8288257 -0.44141188 -0.11686977 -0.050557226

fc1.bias f4 [128]
00000000: 532a 07bf 8dd8 cfbe 2d7b 45be 592c 27bf
00000010: 7303 c3be 8d2a 00bf 2363 b7be 0d57 edbe
00000020: ea0b abbe 31fc 15be 1c92 25bf 1031 13be
00000030: ec30 c5be a9b9 03bf 8f3d 57be 3416 efbe
00000040: 1405 483e a0e2 9cbe 6659 1cbf 3ee8 6d3e
00000050: ed6d 78be ebbc a4be 6158 403d 43e9 c9be
00000060: 76c5 2abf 111e 8ebe 0f5f 2abf 7474 2fbe
00000070: 1a21 f63e 4ce1 00bc 084c 0abf d51a 30be
00000080: 5d27 a0be 1e0d 253e 00cb 10bf d13a b6be
00000090: 956c 40bf 210d 09bf 2ae1 10bf 70c0 263d
000000a0: 7c00 eebe ae7f aabe 5e2b 7d3d e30c 55bf
000000b0: ce1f 19bf 96af e33d e560 1abf b14b 1fbf
000000c0: 9e0b bcbe ef75 8abe 6c32 a1be 5641 04bf
000000d0: 3643 b9bd 400e fcbe e5a8 70be 3c46 10bf
000000e0: d731 76be 0305 203e 5df7 23bf e5a6 d4be
000000f0: aeec b63e a659 50bf 1a96 22bf f69f d0be
00000100: ad32 d5be 3f49 e9be 8ae4 cdbe 52c5 86be
00000110: dee8 2ebf a6a8 1e3c b450 23bf 9c34 ccbe
00000120: 9f41 c53e 1023 f8be e035 a6be 1c9c 14bf
00000130: bf6e 843c afc5 f6be 8525 19bf 4450 ccbe
00000140: 3b24 09bf caa5 e2bd 6307 02bf c15b cbbe
00000150: c126 e9be 2467 54be 3143 60be 3393 fdbe
00000160: 0c8d 83be 4516 66be 1248 b7be c3ea 103d
00000170: 7af3 30bf 5903 a3be 76ee 22bf 52fa 6ebe
00000180: d1a3 a0be fcec d9be 7ae8 98be 12fe 553d
00000190: b6be 63bd cf51 0fbf 3150 d0be dcfa edbe
000001a0: b187 b3be 2ea8 f2be 2aac 9cbe b632 8fbe
000001b0: 3ae7 abbe 5246 41bf 4ead 2cbe 10f7 ffbe
000001c0: 0885 7abe 0c2a f0be b782 79be 1534 dcbe
000001d0: 568a fabe 02ad 28bf 6673 ecbe f8bc 61be
000001e0: aeaf 2bbf 251c a33e 1fbb 13bf 131f b9be
000001f0: 4b10 1abe c1b9 d9be a731 65bd 9afe 73bc
-0.52798957 -0.40594903 -0.19285269 -0.65302044 -0.3808857 -0.5006493 -0.35817823 -0.46355477
-0.33407527 -0.14646985 -0.6467607 -0.14374185 -0.38513887 -0.5145517 -0.21019576 -0.46696627
0.19533187 -0.3064165 -0.6107391 0.23233125 -0.24260683 -0.32175383 0.046959285 -0.39435777
-0.6670755 -0.27757314 -0.665513 -0.17134267 0.4807213 -0.007866215 -0.54022264 -0.17197736
-0.31280032 0.16118285 -0.56559753 -0.35591748 -0.75165683 -0.5353566 -0.56593573 0.040710866
-0.46484745 -0.33300537 0.061808936 -0.8322279 -0.59814155 0.11117475 -0.603041 -0.6222487
-0.36727613 -0.270431 -0.3148378 -0.51662195 -0.090460226 -0.49229622 -0.23501928 -0.5635717
-0.2404245 0.15626912 -0.6404932 -0.4153358 0.35727447 -0.8138679 -0.63510287 -0.4074704
-0.41640225 -0.45563695 -0.40213424 -0.26322418 -0.6832408 0.009683764 -0.6379502 -0.39883888
0.38526627 -0.4846425 -0.32462978 -0.58050704 0.01616609 -0.48197696 -0.59822875 -0.39904988
-0.5357091 -0.11066778 -0.5079252 -0.3971844 -0.4553738 -0.2074247 -0.21900631 -0.49526367
-0.25693548 -0.22469433 -0.35797173 0.035380136 -0.69121516 -0.31838492 -0.6364511 -0.23337677
-0.31374982 -0.42563617 -0.29864866 0.052244253 -0.055601798 -0.55984205 -0.4068618 -0.46480453
-0.35064462 -0.47393936 -0.306001 -0.27968377 -0.3357485 -0.75497925 -0.16862985 -0.4999318
-0.2446481 -0.4690708 -0.2436627 -0.43008485 -0.48933667 -0.6588899 -0.46181792 -0.22044742
-0.6706494 0.3185741 -0.577074 -0.3615652 -0.15045278 -0.4252453 -0.055955555 -0.014892245
